7767517
1474 1806
SherpaMetaData           sherpa_meta_data1        0 0 0=2 1=32 2=4 3=7 -23316=5,2,2,2,2,2 -23317=5,256,256,256,256,256 -23318=5,192,192,192,192,192 -23319=5,1,2,4,8,2 -23320=5,31,31,31,31,31 15=1
Input                    in0                      0 1 in0
Input                    in1                      0 1 in1
Split                    splitncnn_0              1 2 in1 2 3
Input                    in2                      0 1 in2
Split                    splitncnn_1              1 2 in2 5 6
Input                    in3                      0 1 in3
Split                    splitncnn_2              1 2 in3 8 9
Input                    in4                      0 1 in4
Split                    splitncnn_3              1 2 in4 11 12
Input                    in5                      0 1 in5
Split                    splitncnn_4              1 2 in5 14 15
Input                    in6                      0 1 in6
Split                    splitncnn_5              1 2 in6 17 18
Input                    in7                      0 1 in7
Split                    splitncnn_6              1 2 in7 20 21
Input                    in8                      0 1 in8
Split                    splitncnn_7              1 2 in8 23 24
Input                    in9                      0 1 in9
Split                    splitncnn_8              1 2 in9 26 27
Input                    in10                     0 1 in10
Split                    splitncnn_9              1 2 in10 29 30
Input                    in11                     0 1 in11
Split                    splitncnn_10             1 2 in11 32 33
Input                    in12                     0 1 in12
Split                    splitncnn_11             1 2 in12 35 36
Input                    in13                     0 1 in13
Split                    splitncnn_12             1 2 in13 38 39
Input                    in14                     0 1 in14
Split                    splitncnn_13             1 2 in14 41 42
Input                    in15                     0 1 in15
Split                    splitncnn_14             1 2 in15 44 45
Input                    in16                     0 1 in16
Split                    splitncnn_15             1 2 in16 47 48
Input                    in17                     0 1 in17
Split                    splitncnn_16             1 2 in17 50 51
Input                    in18                     0 1 in18
Split                    splitncnn_17             1 2 in18 53 54
Input                    in19                     0 1 in19
Split                    splitncnn_18             1 2 in19 56 57
Input                    in20                     0 1 in20
Split                    splitncnn_19             1 2 in20 59 60
Input                    in21                     0 1 in21
Split                    splitncnn_20             1 2 in21 62 63
Input                    in22                     0 1 in22
Split                    splitncnn_21             1 2 in22 65 66
Input                    in23                     0 1 in23
Split                    splitncnn_22             1 2 in23 68 69
Input                    in24                     0 1 in24
Split                    splitncnn_23             1 2 in24 71 72
Input                    in25                     0 1 in25
Split                    splitncnn_24             1 2 in25 74 75
Input                    in26                     0 1 in26
Split                    splitncnn_25             1 2 in26 77 78
Input                    in27                     0 1 in27
Split                    splitncnn_26             1 2 in27 80 81
Input                    in28                     0 1 in28
Split                    splitncnn_27             1 2 in28 83 84
Input                    in29                     0 1 in29
Split                    splitncnn_28             1 2 in29 86 87
Input                    in30                     0 1 in30
Split                    splitncnn_29             1 2 in30 89 90
Input                    in31                     0 1 in31
Split                    splitncnn_30             1 2 in31 92 93
Input                    in32                     0 1 in32
Split                    splitncnn_31             1 2 in32 95 96
Input                    in33                     0 1 in33
Split                    splitncnn_32             1 2 in33 98 99
Input                    in34                     0 1 in34
Split                    splitncnn_33             1 2 in34 101 102
Input                    in35                     0 1 in35
Split                    splitncnn_34             1 2 in35 104 105
MemoryData               encoders.4.encoder.layers.1 0 1 106 0=1
MemoryData               encoders.4.encoder.layers.0 0 1 107 0=1
MemoryData               encoders.4.encoder.encoder_pos 0 1 108 0=256 1=47
MemoryData               encoders.4.encoder.encoder_pos_1 0 1 109 0=256 1=47
MemoryData               encoders.3.encoder.layers.1 0 1 110 0=1
MemoryData               encoders.3.encoder.layers.0 0 1 111 0=1
MemoryData               encoders.3.encoder.encoder_pos 0 1 112 0=256 1=11
MemoryData               encoders.3.encoder.encoder_pos_1 0 1 113 0=256 1=11
MemoryData               encoders.2.encoder.layers.1 0 1 114 0=1
MemoryData               encoders.2.encoder.layers.0 0 1 115 0=1
MemoryData               encoders.2.encoder.encoder_pos 0 1 116 0=256 1=23
MemoryData               encoders.2.encoder.encoder_pos_1 0 1 117 0=256 1=23
MemoryData               encoders.1.encoder.layers.1 0 1 118 0=1
MemoryData               encoders.1.encoder.layers.0 0 1 119 0=1
MemoryData               encoders.1.encoder.encoder_pos 0 1 120 0=256 1=47
MemoryData               encoders.1.encoder.encoder_pos_1 0 1 121 0=256 1=47
MemoryData               encoders.0.layers.1      0 1 122 0=1
MemoryData               encoders.0.layers.0      0 1 123 0=1
MemoryData               encoders.0.encoder_pos   0 1 124 0=256 1=95
MemoryData               encoders.0.encoder_pos_1 0 1 125 0=256 1=95
ExpandDims               unsqueeze_501            1 1 in0 126 -23303=1,0
Convolution              conv_128                 1 1 126 127 0=8 1=3 11=3 12=1 13=1 14=0 2=1 3=1 4=1 5=1 6=72
Split                    splitncnn_35             1 2 127 128 129
BinaryOp                 sub_0                    1 1 128 130 0=1 1=1 2=1.000000e+00
Sigmoid                  sigmoid_20               1 1 130 131
BinaryOp                 mul_1                    2 1 129 131 132 0=2
Convolution              conv_129                 1 1 132 133 0=32 1=3 11=3 12=1 13=2 14=0 2=1 3=2 4=0 5=1 6=2304
Split                    splitncnn_36             1 2 133 134 135
BinaryOp                 sub_2                    1 1 134 136 0=1 1=1 2=1.000000e+00
Sigmoid                  sigmoid_21               1 1 136 137
BinaryOp                 mul_3                    2 1 135 137 138 0=2
Convolution              conv_130                 1 1 138 139 0=128 1=3 11=3 12=1 13=1 14=0 2=1 3=2 4=0 5=1 6=36864
Split                    splitncnn_37             1 2 139 140 141
BinaryOp                 sub_4                    1 1 140 142 0=1 1=1 2=1.000000e+00
Sigmoid                  sigmoid_22               1 1 142 143
BinaryOp                 mul_5                    2 1 141 143 144 0=2
Crop                     crop_502                 1 1 3 145 -23310=1,1 -23311=1,0 -23309=1,0
Reshape                  encoders.0.state_select_list.0_ncnnreshape0 1 1 145 146 0=0 1=0
Crop                     crop_503                 1 1 18 147 -23310=1,1 -23311=1,0 -23309=1,0
Reshape                  pnnx_unique_10_ncnnreshape0 1 1 147 148 0=0 1=0
Crop                     crop_504                 1 1 33 149 -23310=1,1 -23311=1,0 -23309=1,0
Reshape                  pnnx_unique_11_ncnnreshape0 1 1 149 150 0=0 1=0
Crop                     crop_505                 1 1 48 151 -23310=1,1 -23311=1,0 -23309=1,0
Reshape                  pnnx_unique_12_ncnnreshape0 1 1 151 152 0=0 1=0
Crop                     crop_506                 1 1 63 153 -23310=1,1 -23311=1,0 -23309=1,0
Reshape                  pnnx_unique_13_ncnnreshape0 1 1 153 154 0=0 1=0
Crop                     crop_507                 1 1 78 155 -23310=1,1 -23311=1,0 -23309=1,0
Reshape                  pnnx_unique_14_ncnnreshape0 1 1 155 156 0=0 1=0
Crop                     crop_508                 1 1 93 157 -23310=1,1 -23311=1,0 -23309=1,0
Reshape                  pnnx_unique_15_ncnnreshape0 1 1 157 158 0=0 1=0
Permute                  permute_448              1 1 144 159 0=2
Reshape                  reshape_252              1 1 159 160 0=2432 1=-1
InnerProduct             linear_131               1 1 160 161 0=256 1=1 2=622592
Split                    splitncnn_38             1 4 161 162 163 164 165
InnerProduct             linear_132               1 1 165 166 0=768 1=1 2=196608
Split                    splitncnn_39             1 2 166 167 168
BinaryOp                 sub_6                    1 1 167 169 0=1 1=1 2=1.000000e+00
Sigmoid                  sigmoid_23               1 1 169 170
BinaryOp                 mul_7                    2 1 168 170 171 0=2
InnerProduct             linear_133               1 1 171 172 0=256 1=1 2=196608
BinaryOp                 add_8                    2 1 162 172 173 0=0
Split                    splitncnn_40             1 2 173 174 175
PoolingModuleNoProj      pooling_modul_no_proj_652 3 3 175 146 148 176 177 178
InnerProduct             linear_134               1 1 176 179 0=256 1=0 2=65536
BinaryOp                 add_9                    2 1 174 179 180 0=0
Split                    splitncnn_41             1 2 180 181 182
InnerProduct             linear_135               1 1 182 183 0=496 1=1 2=126976
Slice                    tensor_split_0           1 4 183 184 185 186 187 -23300=4,192,192,96,-233 1=1
Concat                   cat_0                    2 1 152 186 188 0=0
Split                    splitncnn_42             1 2 188 189 190
Reshape                  reshape_253              1 1 189 191 0=24 1=4 2=80
Reshape                  reshape_254              1 1 184 192 0=48 1=4 2=16
Reshape                  reshape_255              1 1 187 193 0=4 1=4 2=16
Concat                   cat_1                    2 1 150 185 194 0=0
Split                    splitncnn_43             1 2 194 195 196
Reshape                  reshape_256              1 1 195 197 0=48 1=4 2=80
InnerProduct             linear_136               1 1 124 198 0=16 1=0 2=4096
Reshape                  reshape_257              1 1 198 199 0=4 1=4 2=95
Permute                  permute_576              1 1 199 200 0=3
Permute                  permute_574              1 1 193 201 0=2
MatMul                   matmul_418               2 1 201 200 202
Permute                  permute_575              1 1 197 203 0=3
Permute                  permute_573              1 1 192 204 0=2
MatMul                   matmul_419               2 1 204 203 205
TensorAsStrided          tensor_as_strided_662    1 1 202 206 -23300=3,4,16,80 -23301=3,1520,94,1 2=15
BinaryOp                 add_10                   2 1 205 206 207 0=0
Reshape                  view_388                 1 1 207 208 0=80 1=16 2=4
Softmax                  softmax_73               1 1 208 209 0=-1 1=1
Split                    splitncnn_44             1 2 209 210 211
Permute                  permute_572              1 1 191 212 0=2
MatMul                   bmm_398                  2 1 211 212 213
Permute                  permute_577              1 1 213 214 0=2
Reshape                  reshape_258              1 1 214 215 0=96 1=16
InnerProduct             linear_137               1 1 215 216 0=256 1=1 2=24576
BinaryOp                 add_11                   2 1 181 216 217 0=0
Split                    splitncnn_45             1 2 217 218 219
Permute                  permute_450              1 1 219 220 0=1
Convolution1D            conv1d_88                1 1 220 221 0=512 1=1 2=1 3=1 4=0 5=1 6=131072
GLU                      glu_0                    1 1 221 222 0=0
Concat                   cat_2                    2 1 156 222 223 0=1
Split                    splitncnn_46             1 2 223 224 225
ConvolutionDepthWise1D   convdw1d_681             1 1 225 226 0=256 1=31 2=1 3=1 4=0 5=1 6=7936 7=256
Split                    splitncnn_47             1 2 226 227 228
BinaryOp                 sub_12                   1 1 227 229 0=1 1=1 2=1.000000e+00
Sigmoid                  sigmoid_24               1 1 229 230
BinaryOp                 mul_13                   2 1 228 230 231 0=2
Convolution1D            conv1d_89                1 1 231 232 0=256 1=1 2=1 3=1 4=0 5=1 6=65536
Permute                  permute_451              1 1 232 233 0=1
BinaryOp                 add_14                   2 1 218 233 234 0=0
Split                    splitncnn_48             1 2 234 235 236
InnerProduct             linear_138               1 1 236 237 0=768 1=1 2=196608
Split                    splitncnn_49             1 2 237 238 239
BinaryOp                 sub_15                   1 1 238 240 0=1 1=1 2=1.000000e+00
Sigmoid                  sigmoid_25               1 1 240 241
BinaryOp                 mul_16                   2 1 239 241 242 0=2
InnerProduct             linear_139               1 1 242 243 0=256 1=1 2=196608
BinaryOp                 add_17                   2 1 235 243 244 0=0
Split                    splitncnn_50             1 2 244 245 246
InnerProduct             linear_140               1 1 246 247 0=96 1=0 2=24576
Concat                   cat_3                    2 1 154 247 248 0=0
Split                    splitncnn_51             1 2 248 249 250
Reshape                  reshape_259              1 1 249 251 0=24 1=4 2=80
Permute                  permute_578              1 1 251 252 0=2
MatMul                   bmm_399                  2 1 210 252 253
Permute                  permute_579              1 1 253 254 0=2
Reshape                  reshape_260              1 1 254 255 0=96 1=16
InnerProduct             linear_141               1 1 255 256 0=256 1=1 2=24576
BinaryOp                 add_18                   2 1 245 256 257 0=0
Split                    splitncnn_52             1 2 257 258 259
Permute                  permute_452              1 1 259 260 0=1
Convolution1D            conv1d_90                1 1 260 261 0=512 1=1 2=1 3=1 4=0 5=1 6=131072
GLU                      glu_1                    1 1 261 262 0=0
Concat                   cat_4                    2 1 158 262 263 0=1
Split                    splitncnn_53             1 2 263 264 265
ConvolutionDepthWise1D   convdw1d_682             1 1 265 266 0=256 1=31 2=1 3=1 4=0 5=1 6=7936 7=256
Split                    splitncnn_54             1 2 266 267 268
BinaryOp                 sub_19                   1 1 267 269 0=1 1=1 2=1.000000e+00
Sigmoid                  sigmoid_26               1 1 269 270
BinaryOp                 mul_20                   2 1 268 270 271 0=2
Convolution1D            conv1d_91                1 1 271 272 0=256 1=1 2=1 3=1 4=0 5=1 6=65536
Permute                  permute_453              1 1 272 273 0=1
BinaryOp                 add_21                   2 1 258 273 274 0=0
Split                    splitncnn_55             1 2 274 275 276
InnerProduct             linear_142               1 1 276 277 0=768 1=1 2=196608
Split                    splitncnn_56             1 2 277 278 279
BinaryOp                 sub_22                   1 1 278 280 0=1 1=1 2=1.000000e+00
Sigmoid                  sigmoid_27               1 1 280 281
BinaryOp                 mul_23                   2 1 279 281 282 0=2
InnerProduct             linear_143               1 1 282 283 0=256 1=1 2=196608
BinaryOp                 add_24                   2 1 275 283 284 0=0
Split                    splitncnn_57             1 3 284 285 286 287
BinaryOp                 mul_25                   2 1 285 286 288 0=2
Reduction                mean_438                 1 1 288 289 0=3 1=0 -23303=1,-1 4=1 5=1
BinaryOp                 add_26                   1 1 289 290 0=0 1=1 2=6.432362e+00
BinaryOp                 pow_27                   1 1 290 291 0=6 1=1 2=-5.000000e-01
BinaryOp                 mul_28                   2 1 287 291 292 0=2
BinaryOp                 sub_29                   2 1 292 163 293 0=1
BinaryOp                 mul_30                   2 1 293 123 294 0=2
BinaryOp                 add_31                   2 1 164 294 295 0=0
Split                    splitncnn_58             1 4 295 296 297 298 299
Crop                     crop_509                 1 1 2 300 -23310=1,2 -23311=1,0 -23309=1,1
Reshape                  encoders.0.state_select_list.1_ncnnreshape0 1 1 300 301 0=0 1=0
Crop                     crop_510                 1 1 17 302 -23310=1,2 -23311=1,0 -23309=1,1
Reshape                  pnnx_unique_22_ncnnreshape0 1 1 302 303 0=0 1=0
Crop                     crop_511                 1 1 32 304 -23310=1,2 -23311=1,0 -23309=1,1
Reshape                  pnnx_unique_23_ncnnreshape0 1 1 304 305 0=0 1=0
Crop                     crop_512                 1 1 47 306 -23310=1,2 -23311=1,0 -23309=1,1
Reshape                  pnnx_unique_24_ncnnreshape0 1 1 306 307 0=0 1=0
Crop                     crop_513                 1 1 62 308 -23310=1,2 -23311=1,0 -23309=1,1
Reshape                  pnnx_unique_25_ncnnreshape0 1 1 308 309 0=0 1=0
Crop                     crop_514                 1 1 77 310 -23310=1,2 -23311=1,0 -23309=1,1
Reshape                  pnnx_unique_26_ncnnreshape0 1 1 310 311 0=0 1=0
Crop                     crop_515                 1 1 92 312 -23310=1,2 -23311=1,0 -23309=1,1
Reshape                  pnnx_unique_27_ncnnreshape0 1 1 312 313 0=0 1=0
InnerProduct             linear_144               1 1 299 314 0=768 1=1 2=196608
Split                    splitncnn_59             1 2 314 315 316
BinaryOp                 sub_32                   1 1 315 317 0=1 1=1 2=1.000000e+00
Sigmoid                  sigmoid_28               1 1 317 318
BinaryOp                 mul_33                   2 1 316 318 319 0=2
InnerProduct             linear_145               1 1 319 320 0=256 1=1 2=196608
BinaryOp                 add_34                   2 1 296 320 321 0=0
Split                    splitncnn_60             1 2 321 322 323
PoolingModuleNoProj      pooling_modul_no_proj_653 3 3 323 301 303 324 325 326
InnerProduct             linear_146               1 1 324 327 0=256 1=0 2=65536
BinaryOp                 add_35                   2 1 322 327 328 0=0
Split                    splitncnn_61             1 2 328 329 330
InnerProduct             linear_147               1 1 330 331 0=496 1=1 2=126976
Slice                    tensor_split_1           1 4 331 332 333 334 335 -23300=4,192,192,96,-233 1=1
Concat                   cat_5                    2 1 307 334 336 0=0
Split                    splitncnn_62             1 2 336 337 338
Reshape                  reshape_261              1 1 337 339 0=24 1=4 2=80
Reshape                  reshape_262              1 1 332 340 0=48 1=4 2=16
Reshape                  reshape_263              1 1 335 341 0=4 1=4 2=16
Concat                   cat_6                    2 1 305 333 342 0=0
Split                    splitncnn_63             1 2 342 343 344
Reshape                  reshape_264              1 1 343 345 0=48 1=4 2=80
InnerProduct             linear_148               1 1 125 346 0=16 1=0 2=4096
Reshape                  reshape_265              1 1 346 347 0=4 1=4 2=95
Permute                  permute_584              1 1 347 348 0=3
Permute                  permute_582              1 1 341 349 0=2
MatMul                   matmul_420               2 1 349 348 350
Permute                  permute_583              1 1 345 351 0=3
Permute                  permute_581              1 1 340 352 0=2
MatMul                   matmul_421               2 1 352 351 353
TensorAsStrided          tensor_as_strided_663    1 1 350 354 -23300=3,4,16,80 -23301=3,1520,94,1 2=15
BinaryOp                 add_36                   2 1 353 354 355 0=0
Reshape                  view_389                 1 1 355 356 0=80 1=16 2=4
Softmax                  softmax_74               1 1 356 357 0=-1 1=1
Split                    splitncnn_64             1 2 357 358 359
Permute                  permute_580              1 1 339 360 0=2
MatMul                   bmm_400                  2 1 359 360 361
Permute                  permute_585              1 1 361 362 0=2
Reshape                  reshape_266              1 1 362 363 0=96 1=16
InnerProduct             linear_149               1 1 363 364 0=256 1=1 2=24576
BinaryOp                 add_37                   2 1 329 364 365 0=0
Split                    splitncnn_65             1 2 365 366 367
Permute                  permute_454              1 1 367 368 0=1
Convolution1D            conv1d_92                1 1 368 369 0=512 1=1 2=1 3=1 4=0 5=1 6=131072
GLU                      glu_2                    1 1 369 370 0=0
Concat                   cat_7                    2 1 311 370 371 0=1
Split                    splitncnn_66             1 2 371 372 373
ConvolutionDepthWise1D   convdw1d_683             1 1 373 374 0=256 1=31 2=1 3=1 4=0 5=1 6=7936 7=256
Split                    splitncnn_67             1 2 374 375 376
BinaryOp                 sub_38                   1 1 375 377 0=1 1=1 2=1.000000e+00
Sigmoid                  sigmoid_29               1 1 377 378
BinaryOp                 mul_39                   2 1 376 378 379 0=2
Convolution1D            conv1d_93                1 1 379 380 0=256 1=1 2=1 3=1 4=0 5=1 6=65536
Permute                  permute_455              1 1 380 381 0=1
BinaryOp                 add_40                   2 1 366 381 382 0=0
Split                    splitncnn_68             1 2 382 383 384
InnerProduct             linear_150               1 1 384 385 0=768 1=1 2=196608
Split                    splitncnn_69             1 2 385 386 387
BinaryOp                 sub_41                   1 1 386 388 0=1 1=1 2=1.000000e+00
Sigmoid                  sigmoid_30               1 1 388 389
BinaryOp                 mul_42                   2 1 387 389 390 0=2
InnerProduct             linear_151               1 1 390 391 0=256 1=1 2=196608
BinaryOp                 add_43                   2 1 383 391 392 0=0
Split                    splitncnn_70             1 2 392 393 394
InnerProduct             linear_152               1 1 394 395 0=96 1=0 2=24576
Concat                   cat_8                    2 1 309 395 396 0=0
Split                    splitncnn_71             1 2 396 397 398
Reshape                  reshape_267              1 1 397 399 0=24 1=4 2=80
Permute                  permute_586              1 1 399 400 0=2
MatMul                   bmm_401                  2 1 358 400 401
Permute                  permute_587              1 1 401 402 0=2
Reshape                  reshape_268              1 1 402 403 0=96 1=16
InnerProduct             linear_153               1 1 403 404 0=256 1=1 2=24576
BinaryOp                 add_44                   2 1 393 404 405 0=0
Split                    splitncnn_72             1 2 405 406 407
Permute                  permute_456              1 1 407 408 0=1
Convolution1D            conv1d_94                1 1 408 409 0=512 1=1 2=1 3=1 4=0 5=1 6=131072
GLU                      glu_3                    1 1 409 410 0=0
Concat                   cat_9                    2 1 313 410 411 0=1
Split                    splitncnn_73             1 2 411 412 413
ConvolutionDepthWise1D   convdw1d_684             1 1 413 414 0=256 1=31 2=1 3=1 4=0 5=1 6=7936 7=256
Split                    splitncnn_74             1 2 414 415 416
BinaryOp                 sub_45                   1 1 415 417 0=1 1=1 2=1.000000e+00
Sigmoid                  sigmoid_31               1 1 417 418
BinaryOp                 mul_46                   2 1 416 418 419 0=2
Convolution1D            conv1d_95                1 1 419 420 0=256 1=1 2=1 3=1 4=0 5=1 6=65536
Permute                  permute_457              1 1 420 421 0=1
BinaryOp                 add_47                   2 1 406 421 422 0=0
Split                    splitncnn_75             1 2 422 423 424
InnerProduct             linear_154               1 1 424 425 0=768 1=1 2=196608
Split                    splitncnn_76             1 2 425 426 427
BinaryOp                 sub_48                   1 1 426 428 0=1 1=1 2=1.000000e+00
Sigmoid                  sigmoid_32               1 1 428 429
BinaryOp                 mul_49                   2 1 427 429 430 0=2
InnerProduct             linear_155               1 1 430 431 0=256 1=1 2=196608
BinaryOp                 add_50                   2 1 423 431 432 0=0
Split                    splitncnn_77             1 3 432 433 434 435
BinaryOp                 mul_51                   2 1 433 434 436 0=2
Reduction                mean_439                 1 1 436 437 0=3 1=0 -23303=1,-1 4=1 5=1
BinaryOp                 add_52                   1 1 437 438 0=0 1=1 2=8.898914e+00
BinaryOp                 pow_53                   1 1 438 439 0=6 1=1 2=-5.000000e-01
BinaryOp                 mul_54                   2 1 435 439 440 0=2
BinaryOp                 sub_55                   2 1 440 297 441 0=1
BinaryOp                 mul_56                   2 1 441 122 442 0=2
BinaryOp                 add_57                   2 1 298 442 443 0=0
Split                    splitncnn_78             1 2 443 444 445
MemoryData               encoders.1.downsample    0 1 446 0=256 1=1 2=1
Reshape                  reshape_269              1 1 445 447 0=256 1=2 2=8
Split                    splitncnn_79             1 2 447 448 449
BinaryOp                 mul_58                   2 1 448 446 450 0=2
Reduction                sum_491                  1 1 450 451 0=0 1=0 -23303=1,-1 4=1 5=1
Softmax                  softmax_75               1 1 451 452 0=1 1=1
BinaryOp                 mul_59                   2 1 449 452 453 0=2
Reduction                sum_492                  1 1 453 454 0=0 1=0 -23303=1,1 4=0 5=1
Crop                     crop_516                 1 1 6 455 -23310=1,1 -23311=1,0 -23309=1,0
Reshape                  encoders.1.encoder.state_select_list.0_ncnnreshape0 1 1 455 456 0=0 1=0
Crop                     crop_517                 1 1 21 457 -23310=1,1 -23311=1,0 -23309=1,0
Reshape                  pnnx_unique_35_ncnnreshape0 1 1 457 458 0=0 1=0
Crop                     crop_518                 1 1 36 459 -23310=1,1 -23311=1,0 -23309=1,0
Reshape                  pnnx_unique_36_ncnnreshape0 1 1 459 460 0=0 1=0
Crop                     crop_519                 1 1 51 461 -23310=1,1 -23311=1,0 -23309=1,0
Reshape                  pnnx_unique_37_ncnnreshape0 1 1 461 462 0=0 1=0
Crop                     crop_520                 1 1 66 463 -23310=1,1 -23311=1,0 -23309=1,0
Reshape                  pnnx_unique_38_ncnnreshape0 1 1 463 464 0=0 1=0
Crop                     crop_521                 1 1 81 465 -23310=1,1 -23311=1,0 -23309=1,0
Reshape                  pnnx_unique_39_ncnnreshape0 1 1 465 466 0=0 1=0
Crop                     crop_522                 1 1 96 467 -23310=1,1 -23311=1,0 -23309=1,0
Reshape                  pnnx_unique_40_ncnnreshape0 1 1 467 468 0=0 1=0
Split                    splitncnn_80             1 4 454 469 470 471 472
InnerProduct             linear_156               1 1 472 473 0=768 1=1 2=196608
Split                    splitncnn_81             1 2 473 474 475
BinaryOp                 sub_60                   1 1 474 476 0=1 1=1 2=1.000000e+00
Sigmoid                  sigmoid_33               1 1 476 477
BinaryOp                 mul_61                   2 1 475 477 478 0=2
InnerProduct             linear_157               1 1 478 479 0=256 1=1 2=196608
BinaryOp                 add_62                   2 1 469 479 480 0=0
Split                    splitncnn_82             1 2 480 481 482
PoolingModuleNoProj      pooling_modul_no_proj_654 3 3 482 456 458 483 484 485
InnerProduct             linear_158               1 1 483 486 0=256 1=0 2=65536
BinaryOp                 add_63                   2 1 481 486 487 0=0
Split                    splitncnn_83             1 2 487 488 489
InnerProduct             linear_159               1 1 489 490 0=496 1=1 2=126976
Slice                    tensor_split_2           1 4 490 491 492 493 494 -23300=4,192,192,96,-233 1=1
Concat                   cat_10                   2 1 462 493 495 0=0
Split                    splitncnn_84             1 2 495 496 497
Reshape                  reshape_270              1 1 496 498 0=24 1=4 2=40
Reshape                  reshape_271              1 1 491 499 0=48 1=4 2=8
Reshape                  reshape_272              1 1 494 500 0=4 1=4 2=8
Concat                   cat_11                   2 1 460 492 501 0=0
Split                    splitncnn_85             1 2 501 502 503
Reshape                  reshape_273              1 1 502 504 0=48 1=4 2=40
InnerProduct             linear_160               1 1 120 505 0=16 1=0 2=4096
Reshape                  reshape_274              1 1 505 506 0=4 1=4 2=47
Permute                  permute_592              1 1 506 507 0=3
Permute                  permute_590              1 1 500 508 0=2
MatMul                   matmul_422               2 1 508 507 509
Permute                  permute_591              1 1 504 510 0=3
Permute                  permute_589              1 1 499 511 0=2
MatMul                   matmul_423               2 1 511 510 512
TensorAsStrided          tensor_as_strided_664    1 1 509 513 -23300=3,4,8,40 -23301=3,376,46,1 2=7
BinaryOp                 add_64                   2 1 512 513 514 0=0
Reshape                  view_390                 1 1 514 515 0=40 1=8 2=4
Softmax                  softmax_76               1 1 515 516 0=-1 1=1
Split                    splitncnn_86             1 2 516 517 518
Permute                  permute_588              1 1 498 519 0=2
MatMul                   bmm_402                  2 1 518 519 520
Permute                  permute_593              1 1 520 521 0=2
Reshape                  reshape_275              1 1 521 522 0=96 1=8
InnerProduct             linear_161               1 1 522 523 0=256 1=1 2=24576
BinaryOp                 add_65                   2 1 488 523 524 0=0
Split                    splitncnn_87             1 2 524 525 526
Permute                  permute_458              1 1 526 527 0=1
Convolution1D            conv1d_96                1 1 527 528 0=512 1=1 2=1 3=1 4=0 5=1 6=131072
GLU                      glu_4                    1 1 528 529 0=0
Concat                   cat_12                   2 1 466 529 530 0=1
Split                    splitncnn_88             1 2 530 531 532
ConvolutionDepthWise1D   convdw1d_685             1 1 532 533 0=256 1=31 2=1 3=1 4=0 5=1 6=7936 7=256
Split                    splitncnn_89             1 2 533 534 535
BinaryOp                 sub_66                   1 1 534 536 0=1 1=1 2=1.000000e+00
Sigmoid                  sigmoid_34               1 1 536 537
BinaryOp                 mul_67                   2 1 535 537 538 0=2
Convolution1D            conv1d_97                1 1 538 539 0=256 1=1 2=1 3=1 4=0 5=1 6=65536
Permute                  permute_459              1 1 539 540 0=1
BinaryOp                 add_68                   2 1 525 540 541 0=0
Split                    splitncnn_90             1 2 541 542 543
InnerProduct             linear_162               1 1 543 544 0=768 1=1 2=196608
Split                    splitncnn_91             1 2 544 545 546
BinaryOp                 sub_69                   1 1 545 547 0=1 1=1 2=1.000000e+00
Sigmoid                  sigmoid_35               1 1 547 548
BinaryOp                 mul_70                   2 1 546 548 549 0=2
InnerProduct             linear_163               1 1 549 550 0=256 1=1 2=196608
BinaryOp                 add_71                   2 1 542 550 551 0=0
Split                    splitncnn_92             1 2 551 552 553
InnerProduct             linear_164               1 1 553 554 0=96 1=0 2=24576
Concat                   cat_13                   2 1 464 554 555 0=0
Split                    splitncnn_93             1 2 555 556 557
Reshape                  reshape_276              1 1 556 558 0=24 1=4 2=40
Permute                  permute_594              1 1 558 559 0=2
MatMul                   bmm_403                  2 1 517 559 560
Permute                  permute_595              1 1 560 561 0=2
Reshape                  reshape_277              1 1 561 562 0=96 1=8
InnerProduct             linear_165               1 1 562 563 0=256 1=1 2=24576
BinaryOp                 add_72                   2 1 552 563 564 0=0
Split                    splitncnn_94             1 2 564 565 566
Permute                  permute_460              1 1 566 567 0=1
Convolution1D            conv1d_98                1 1 567 568 0=512 1=1 2=1 3=1 4=0 5=1 6=131072
GLU                      glu_5                    1 1 568 569 0=0
Concat                   cat_14                   2 1 468 569 570 0=1
Split                    splitncnn_95             1 2 570 571 572
ConvolutionDepthWise1D   convdw1d_686             1 1 572 573 0=256 1=31 2=1 3=1 4=0 5=1 6=7936 7=256
Split                    splitncnn_96             1 2 573 574 575
BinaryOp                 sub_73                   1 1 574 576 0=1 1=1 2=1.000000e+00
Sigmoid                  sigmoid_36               1 1 576 577
BinaryOp                 mul_74                   2 1 575 577 578 0=2
Convolution1D            conv1d_99                1 1 578 579 0=256 1=1 2=1 3=1 4=0 5=1 6=65536
Permute                  permute_461              1 1 579 580 0=1
BinaryOp                 add_75                   2 1 565 580 581 0=0
Split                    splitncnn_97             1 2 581 582 583
InnerProduct             linear_166               1 1 583 584 0=768 1=1 2=196608
Split                    splitncnn_98             1 2 584 585 586
BinaryOp                 sub_76                   1 1 585 587 0=1 1=1 2=1.000000e+00
Sigmoid                  sigmoid_37               1 1 587 588
BinaryOp                 mul_77                   2 1 586 588 589 0=2
InnerProduct             linear_167               1 1 589 590 0=256 1=1 2=196608
BinaryOp                 add_78                   2 1 582 590 591 0=0
Split                    splitncnn_99             1 3 591 592 593 594
BinaryOp                 mul_79                   2 1 592 593 595 0=2
Reduction                mean_440                 1 1 595 596 0=3 1=0 -23303=1,-1 4=1 5=1
BinaryOp                 add_80                   1 1 596 597 0=0 1=1 2=5.620271e+00
BinaryOp                 pow_81                   1 1 597 598 0=6 1=1 2=-5.000000e-01
BinaryOp                 mul_82                   2 1 594 598 599 0=2
BinaryOp                 sub_83                   2 1 599 470 600 0=1
BinaryOp                 mul_84                   2 1 600 119 601 0=2
BinaryOp                 add_85                   2 1 471 601 602 0=0
Split                    splitncnn_100            1 4 602 603 604 605 606
Crop                     crop_523                 1 1 5 607 -23310=1,2 -23311=1,0 -23309=1,1
Reshape                  encoders.1.encoder.state_select_list.1_ncnnreshape0 1 1 607 608 0=0 1=0
Crop                     crop_524                 1 1 20 609 -23310=1,2 -23311=1,0 -23309=1,1
Reshape                  pnnx_unique_48_ncnnreshape0 1 1 609 610 0=0 1=0
Crop                     crop_525                 1 1 35 611 -23310=1,2 -23311=1,0 -23309=1,1
Reshape                  pnnx_unique_49_ncnnreshape0 1 1 611 612 0=0 1=0
Crop                     crop_526                 1 1 50 613 -23310=1,2 -23311=1,0 -23309=1,1
Reshape                  pnnx_unique_50_ncnnreshape0 1 1 613 614 0=0 1=0
Crop                     crop_527                 1 1 65 615 -23310=1,2 -23311=1,0 -23309=1,1
Reshape                  pnnx_unique_51_ncnnreshape0 1 1 615 616 0=0 1=0
Crop                     crop_528                 1 1 80 617 -23310=1,2 -23311=1,0 -23309=1,1
Reshape                  pnnx_unique_52_ncnnreshape0 1 1 617 618 0=0 1=0
Crop                     crop_529                 1 1 95 619 -23310=1,2 -23311=1,0 -23309=1,1
Reshape                  pnnx_unique_53_ncnnreshape0 1 1 619 620 0=0 1=0
InnerProduct             linear_168               1 1 606 621 0=768 1=1 2=196608
Split                    splitncnn_101            1 2 621 622 623
BinaryOp                 sub_86                   1 1 622 624 0=1 1=1 2=1.000000e+00
Sigmoid                  sigmoid_38               1 1 624 625
BinaryOp                 mul_87                   2 1 623 625 626 0=2
InnerProduct             linear_169               1 1 626 627 0=256 1=1 2=196608
BinaryOp                 add_88                   2 1 603 627 628 0=0
Split                    splitncnn_102            1 2 628 629 630
PoolingModuleNoProj      pooling_modul_no_proj_655 3 3 630 608 610 631 632 633
InnerProduct             linear_170               1 1 631 634 0=256 1=0 2=65536
BinaryOp                 add_89                   2 1 629 634 635 0=0
Split                    splitncnn_103            1 2 635 636 637
InnerProduct             linear_171               1 1 637 638 0=496 1=1 2=126976
Slice                    tensor_split_3           1 4 638 639 640 641 642 -23300=4,192,192,96,-233 1=1
Concat                   cat_15                   2 1 614 641 643 0=0
Split                    splitncnn_104            1 2 643 644 645
Reshape                  reshape_278              1 1 644 646 0=24 1=4 2=40
Reshape                  reshape_279              1 1 639 647 0=48 1=4 2=8
Reshape                  reshape_280              1 1 642 648 0=4 1=4 2=8
Concat                   cat_16                   2 1 612 640 649 0=0
Split                    splitncnn_105            1 2 649 650 651
Reshape                  reshape_281              1 1 650 652 0=48 1=4 2=40
InnerProduct             linear_172               1 1 121 653 0=16 1=0 2=4096
Reshape                  reshape_282              1 1 653 654 0=4 1=4 2=47
Permute                  permute_600              1 1 654 655 0=3
Permute                  permute_598              1 1 648 656 0=2
MatMul                   matmul_424               2 1 656 655 657
Permute                  permute_599              1 1 652 658 0=3
Permute                  permute_597              1 1 647 659 0=2
MatMul                   matmul_425               2 1 659 658 660
TensorAsStrided          tensor_as_strided_665    1 1 657 661 -23300=3,4,8,40 -23301=3,376,46,1 2=7
BinaryOp                 add_90                   2 1 660 661 662 0=0
Reshape                  view_391                 1 1 662 663 0=40 1=8 2=4
Softmax                  softmax_77               1 1 663 664 0=-1 1=1
Split                    splitncnn_106            1 2 664 665 666
Permute                  permute_596              1 1 646 667 0=2
MatMul                   bmm_404                  2 1 666 667 668
Permute                  permute_601              1 1 668 669 0=2
Reshape                  reshape_283              1 1 669 670 0=96 1=8
InnerProduct             linear_173               1 1 670 671 0=256 1=1 2=24576
BinaryOp                 add_91                   2 1 636 671 672 0=0
Split                    splitncnn_107            1 2 672 673 674
Permute                  permute_462              1 1 674 675 0=1
Convolution1D            conv1d_100               1 1 675 676 0=512 1=1 2=1 3=1 4=0 5=1 6=131072
GLU                      glu_6                    1 1 676 677 0=0
Concat                   cat_17                   2 1 618 677 678 0=1
Split                    splitncnn_108            1 2 678 679 680
ConvolutionDepthWise1D   convdw1d_687             1 1 680 681 0=256 1=31 2=1 3=1 4=0 5=1 6=7936 7=256
Split                    splitncnn_109            1 2 681 682 683
BinaryOp                 sub_92                   1 1 682 684 0=1 1=1 2=1.000000e+00
Sigmoid                  sigmoid_39               1 1 684 685
BinaryOp                 mul_93                   2 1 683 685 686 0=2
Convolution1D            conv1d_101               1 1 686 687 0=256 1=1 2=1 3=1 4=0 5=1 6=65536
Permute                  permute_463              1 1 687 688 0=1
BinaryOp                 add_94                   2 1 673 688 689 0=0
Split                    splitncnn_110            1 2 689 690 691
InnerProduct             linear_174               1 1 691 692 0=768 1=1 2=196608
Split                    splitncnn_111            1 2 692 693 694
BinaryOp                 sub_95                   1 1 693 695 0=1 1=1 2=1.000000e+00
Sigmoid                  sigmoid_40               1 1 695 696
BinaryOp                 mul_96                   2 1 694 696 697 0=2
InnerProduct             linear_175               1 1 697 698 0=256 1=1 2=196608
BinaryOp                 add_97                   2 1 690 698 699 0=0
Split                    splitncnn_112            1 2 699 700 701
InnerProduct             linear_176               1 1 701 702 0=96 1=0 2=24576
Concat                   cat_18                   2 1 616 702 703 0=0
Split                    splitncnn_113            1 2 703 704 705
Reshape                  reshape_284              1 1 704 706 0=24 1=4 2=40
Permute                  permute_602              1 1 706 707 0=2
MatMul                   bmm_405                  2 1 665 707 708
Permute                  permute_603              1 1 708 709 0=2
Reshape                  reshape_285              1 1 709 710 0=96 1=8
InnerProduct             linear_177               1 1 710 711 0=256 1=1 2=24576
BinaryOp                 add_98                   2 1 700 711 712 0=0
Split                    splitncnn_114            1 2 712 713 714
Permute                  permute_464              1 1 714 715 0=1
Convolution1D            conv1d_102               1 1 715 716 0=512 1=1 2=1 3=1 4=0 5=1 6=131072
GLU                      glu_7                    1 1 716 717 0=0
Concat                   cat_19                   2 1 620 717 718 0=1
Split                    splitncnn_115            1 2 718 719 720
ConvolutionDepthWise1D   convdw1d_688             1 1 720 721 0=256 1=31 2=1 3=1 4=0 5=1 6=7936 7=256
Split                    splitncnn_116            1 2 721 722 723
BinaryOp                 sub_99                   1 1 722 724 0=1 1=1 2=1.000000e+00
Sigmoid                  sigmoid_41               1 1 724 725
BinaryOp                 mul_100                  2 1 723 725 726 0=2
Convolution1D            conv1d_103               1 1 726 727 0=256 1=1 2=1 3=1 4=0 5=1 6=65536
Permute                  permute_465              1 1 727 728 0=1
BinaryOp                 add_101                  2 1 713 728 729 0=0
Split                    splitncnn_117            1 2 729 730 731
InnerProduct             linear_178               1 1 731 732 0=768 1=1 2=196608
Split                    splitncnn_118            1 2 732 733 734
BinaryOp                 sub_102                  1 1 733 735 0=1 1=1 2=1.000000e+00
Sigmoid                  sigmoid_42               1 1 735 736
BinaryOp                 mul_103                  2 1 734 736 737 0=2
InnerProduct             linear_179               1 1 737 738 0=256 1=1 2=196608
BinaryOp                 add_104                  2 1 730 738 739 0=0
Split                    splitncnn_119            1 3 739 740 741 742
BinaryOp                 mul_105                  2 1 740 741 743 0=2
Reduction                mean_441                 1 1 743 744 0=3 1=0 -23303=1,-1 4=1 5=1
BinaryOp                 add_106                  1 1 744 745 0=0 1=1 2=1.053647e+01
BinaryOp                 pow_107                  1 1 745 746 0=6 1=1 2=-5.000000e-01
BinaryOp                 mul_108                  2 1 742 746 747 0=2
BinaryOp                 sub_109                  2 1 747 604 748 0=1
BinaryOp                 mul_110                  2 1 748 118 749 0=2
BinaryOp                 add_111                  2 1 605 749 750 0=0
MemoryData               encoders.1.out_combiner  0 1 751 0=1
Split                    splitncnn_120            1 2 751 752 753
BinaryOp                 sub_112                  1 1 752 754 0=7 1=1 2=1.000000e+00
SimpleUpsample           simple_upsample_677      1 1 750 755 0=2 1=256 2=512
BinaryOp                 mul_113                  2 1 755 754 756 0=2
BinaryOp                 mul_114                  2 1 444 753 757 0=2
BinaryOp                 add_115                  2 1 757 756 758 0=0
Split                    splitncnn_121            1 3 758 759 760 761
MemoryData               encoders.2.downsample    0 1 762 0=256 1=1 2=1
Reshape                  reshape_286              1 1 761 763 0=256 1=4 2=4
Split                    splitncnn_122            1 2 763 764 765
BinaryOp                 mul_116                  2 1 764 762 766 0=2
Reduction                sum_493                  1 1 766 767 0=0 1=0 -23303=1,-1 4=1 5=1
Softmax                  softmax_78               1 1 767 768 0=1 1=1
BinaryOp                 mul_117                  2 1 765 768 769 0=2
Reduction                sum_494                  1 1 769 770 0=0 1=0 -23303=1,1 4=0 5=1
Crop                     crop_530                 1 1 9 771 -23310=1,1 -23311=1,0 -23309=1,0
Reshape                  encoders.2.encoder.state_select_list.0_ncnnreshape0 1 1 771 772 0=0 1=0
Crop                     crop_531                 1 1 24 773 -23310=1,1 -23311=1,0 -23309=1,0
Reshape                  pnnx_unique_62_ncnnreshape0 1 1 773 774 0=0 1=0
Crop                     crop_532                 1 1 39 775 -23310=1,1 -23311=1,0 -23309=1,0
Reshape                  pnnx_unique_63_ncnnreshape0 1 1 775 776 0=0 1=0
Crop                     crop_533                 1 1 54 777 -23310=1,1 -23311=1,0 -23309=1,0
Reshape                  pnnx_unique_64_ncnnreshape0 1 1 777 778 0=0 1=0
Crop                     crop_534                 1 1 69 779 -23310=1,1 -23311=1,0 -23309=1,0
Reshape                  pnnx_unique_65_ncnnreshape0 1 1 779 780 0=0 1=0
Crop                     crop_535                 1 1 84 781 -23310=1,1 -23311=1,0 -23309=1,0
Reshape                  pnnx_unique_66_ncnnreshape0 1 1 781 782 0=0 1=0
Crop                     crop_536                 1 1 99 783 -23310=1,1 -23311=1,0 -23309=1,0
Reshape                  pnnx_unique_67_ncnnreshape0 1 1 783 784 0=0 1=0
Split                    splitncnn_123            1 4 770 785 786 787 788
InnerProduct             linear_180               1 1 788 789 0=768 1=1 2=196608
Split                    splitncnn_124            1 2 789 790 791
BinaryOp                 sub_118                  1 1 790 792 0=1 1=1 2=1.000000e+00
Sigmoid                  sigmoid_43               1 1 792 793
BinaryOp                 mul_119                  2 1 791 793 794 0=2
InnerProduct             linear_181               1 1 794 795 0=256 1=1 2=196608
BinaryOp                 add_120                  2 1 785 795 796 0=0
Split                    splitncnn_125            1 2 796 797 798
PoolingModuleNoProj      pooling_modul_no_proj_656 3 3 798 772 774 799 800 801
InnerProduct             linear_182               1 1 799 802 0=256 1=0 2=65536
BinaryOp                 add_121                  2 1 797 802 803 0=0
Split                    splitncnn_126            1 2 803 804 805
InnerProduct             linear_183               1 1 805 806 0=496 1=1 2=126976
Slice                    tensor_split_4           1 4 806 807 808 809 810 -23300=4,192,192,96,-233 1=1
Concat                   cat_20                   2 1 778 809 811 0=0
Split                    splitncnn_127            1 2 811 812 813
Reshape                  reshape_287              1 1 812 814 0=24 1=4 2=20
Reshape                  reshape_288              1 1 807 815 0=48 1=4 2=4
Reshape                  reshape_289              1 1 810 816 0=4 1=4 2=4
Concat                   cat_21                   2 1 776 808 817 0=0
Split                    splitncnn_128            1 2 817 818 819
Reshape                  reshape_290              1 1 818 820 0=48 1=4 2=20
InnerProduct             linear_184               1 1 116 821 0=16 1=0 2=4096
Reshape                  reshape_291              1 1 821 822 0=4 1=4 2=23
Permute                  permute_608              1 1 822 823 0=3
Permute                  permute_606              1 1 816 824 0=2
MatMul                   matmul_426               2 1 824 823 825
Permute                  permute_607              1 1 820 826 0=3
Permute                  permute_605              1 1 815 827 0=2
MatMul                   matmul_427               2 1 827 826 828
TensorAsStrided          tensor_as_strided_666    1 1 825 829 -23300=3,4,4,20 -23301=3,92,22,1 2=3
BinaryOp                 add_122                  2 1 828 829 830 0=0
Reshape                  view_392                 1 1 830 831 0=20 1=4 2=4
Softmax                  softmax_79               1 1 831 832 0=-1 1=1
Split                    splitncnn_129            1 2 832 833 834
Permute                  permute_604              1 1 814 835 0=2
MatMul                   bmm_406                  2 1 834 835 836
Permute                  permute_609              1 1 836 837 0=2
Reshape                  reshape_292              1 1 837 838 0=96 1=4
InnerProduct             linear_185               1 1 838 839 0=256 1=1 2=24576
BinaryOp                 add_123                  2 1 804 839 840 0=0
Split                    splitncnn_130            1 2 840 841 842
Permute                  permute_466              1 1 842 843 0=1
Convolution1D            conv1d_104               1 1 843 844 0=512 1=1 2=1 3=1 4=0 5=1 6=131072
GLU                      glu_8                    1 1 844 845 0=0
Concat                   cat_22                   2 1 782 845 846 0=1
Split                    splitncnn_131            1 2 846 847 848
ConvolutionDepthWise1D   convdw1d_689             1 1 848 849 0=256 1=31 2=1 3=1 4=0 5=1 6=7936 7=256
Split                    splitncnn_132            1 2 849 850 851
BinaryOp                 sub_124                  1 1 850 852 0=1 1=1 2=1.000000e+00
Sigmoid                  sigmoid_44               1 1 852 853
BinaryOp                 mul_125                  2 1 851 853 854 0=2
Convolution1D            conv1d_105               1 1 854 855 0=256 1=1 2=1 3=1 4=0 5=1 6=65536
Permute                  permute_467              1 1 855 856 0=1
BinaryOp                 add_126                  2 1 841 856 857 0=0
Split                    splitncnn_133            1 2 857 858 859
InnerProduct             linear_186               1 1 859 860 0=768 1=1 2=196608
Split                    splitncnn_134            1 2 860 861 862
BinaryOp                 sub_127                  1 1 861 863 0=1 1=1 2=1.000000e+00
Sigmoid                  sigmoid_45               1 1 863 864
BinaryOp                 mul_128                  2 1 862 864 865 0=2
InnerProduct             linear_187               1 1 865 866 0=256 1=1 2=196608
BinaryOp                 add_129                  2 1 858 866 867 0=0
Split                    splitncnn_135            1 2 867 868 869
InnerProduct             linear_188               1 1 869 870 0=96 1=0 2=24576
Concat                   cat_23                   2 1 780 870 871 0=0
Split                    splitncnn_136            1 2 871 872 873
Reshape                  reshape_293              1 1 872 874 0=24 1=4 2=20
Permute                  permute_610              1 1 874 875 0=2
MatMul                   bmm_407                  2 1 833 875 876
Permute                  permute_611              1 1 876 877 0=2
Reshape                  reshape_294              1 1 877 878 0=96 1=4
InnerProduct             linear_189               1 1 878 879 0=256 1=1 2=24576
BinaryOp                 add_130                  2 1 868 879 880 0=0
Split                    splitncnn_137            1 2 880 881 882
Permute                  permute_468              1 1 882 883 0=1
Convolution1D            conv1d_106               1 1 883 884 0=512 1=1 2=1 3=1 4=0 5=1 6=131072
GLU                      glu_9                    1 1 884 885 0=0
Concat                   cat_24                   2 1 784 885 886 0=1
Split                    splitncnn_138            1 2 886 887 888
ConvolutionDepthWise1D   convdw1d_690             1 1 888 889 0=256 1=31 2=1 3=1 4=0 5=1 6=7936 7=256
Split                    splitncnn_139            1 2 889 890 891
BinaryOp                 sub_131                  1 1 890 892 0=1 1=1 2=1.000000e+00
Sigmoid                  sigmoid_46               1 1 892 893
BinaryOp                 mul_132                  2 1 891 893 894 0=2
Convolution1D            conv1d_107               1 1 894 895 0=256 1=1 2=1 3=1 4=0 5=1 6=65536
Permute                  permute_469              1 1 895 896 0=1
BinaryOp                 add_133                  2 1 881 896 897 0=0
Split                    splitncnn_140            1 2 897 898 899
InnerProduct             linear_190               1 1 899 900 0=768 1=1 2=196608
Split                    splitncnn_141            1 2 900 901 902
BinaryOp                 sub_134                  1 1 901 903 0=1 1=1 2=1.000000e+00
Sigmoid                  sigmoid_47               1 1 903 904
BinaryOp                 mul_135                  2 1 902 904 905 0=2
InnerProduct             linear_191               1 1 905 906 0=256 1=1 2=196608
BinaryOp                 add_136                  2 1 898 906 907 0=0
Split                    splitncnn_142            1 3 907 908 909 910
BinaryOp                 mul_137                  2 1 908 909 911 0=2
Reduction                mean_442                 1 1 911 912 0=3 1=0 -23303=1,-1 4=1 5=1
BinaryOp                 add_138                  1 1 912 913 0=0 1=1 2=3.654023e+00
BinaryOp                 pow_139                  1 1 913 914 0=6 1=1 2=-5.000000e-01
BinaryOp                 mul_140                  2 1 910 914 915 0=2
BinaryOp                 sub_141                  2 1 915 786 916 0=1
BinaryOp                 mul_142                  2 1 916 115 917 0=2
BinaryOp                 add_143                  2 1 787 917 918 0=0
Split                    splitncnn_143            1 4 918 919 920 921 922
Crop                     crop_537                 1 1 8 923 -23310=1,2 -23311=1,0 -23309=1,1
Reshape                  encoders.2.encoder.state_select_list.1_ncnnreshape0 1 1 923 924 0=0 1=0
Crop                     crop_538                 1 1 23 925 -23310=1,2 -23311=1,0 -23309=1,1
Reshape                  pnnx_unique_75_ncnnreshape0 1 1 925 926 0=0 1=0
Crop                     crop_539                 1 1 38 927 -23310=1,2 -23311=1,0 -23309=1,1
Reshape                  pnnx_unique_76_ncnnreshape0 1 1 927 928 0=0 1=0
Crop                     crop_540                 1 1 53 929 -23310=1,2 -23311=1,0 -23309=1,1
Reshape                  pnnx_unique_77_ncnnreshape0 1 1 929 930 0=0 1=0
Crop                     crop_541                 1 1 68 931 -23310=1,2 -23311=1,0 -23309=1,1
Reshape                  pnnx_unique_78_ncnnreshape0 1 1 931 932 0=0 1=0
Crop                     crop_542                 1 1 83 933 -23310=1,2 -23311=1,0 -23309=1,1
Reshape                  pnnx_unique_79_ncnnreshape0 1 1 933 934 0=0 1=0
Crop                     crop_543                 1 1 98 935 -23310=1,2 -23311=1,0 -23309=1,1
Reshape                  pnnx_unique_80_ncnnreshape0 1 1 935 936 0=0 1=0
InnerProduct             linear_192               1 1 922 937 0=768 1=1 2=196608
Split                    splitncnn_144            1 2 937 938 939
BinaryOp                 sub_144                  1 1 938 940 0=1 1=1 2=1.000000e+00
Sigmoid                  sigmoid_48               1 1 940 941
BinaryOp                 mul_145                  2 1 939 941 942 0=2
InnerProduct             linear_193               1 1 942 943 0=256 1=1 2=196608
BinaryOp                 add_146                  2 1 919 943 944 0=0
Split                    splitncnn_145            1 2 944 945 946
PoolingModuleNoProj      pooling_modul_no_proj_657 3 3 946 924 926 947 948 949
InnerProduct             linear_194               1 1 947 950 0=256 1=0 2=65536
BinaryOp                 add_147                  2 1 945 950 951 0=0
Split                    splitncnn_146            1 2 951 952 953
InnerProduct             linear_195               1 1 953 954 0=496 1=1 2=126976
Slice                    tensor_split_5           1 4 954 955 956 957 958 -23300=4,192,192,96,-233 1=1
Concat                   cat_25                   2 1 930 957 959 0=0
Split                    splitncnn_147            1 2 959 960 961
Reshape                  reshape_295              1 1 960 962 0=24 1=4 2=20
Reshape                  reshape_296              1 1 955 963 0=48 1=4 2=4
Reshape                  reshape_297              1 1 958 964 0=4 1=4 2=4
Concat                   cat_26                   2 1 928 956 965 0=0
Split                    splitncnn_148            1 2 965 966 967
Reshape                  reshape_298              1 1 966 968 0=48 1=4 2=20
InnerProduct             linear_196               1 1 117 969 0=16 1=0 2=4096
Reshape                  reshape_299              1 1 969 970 0=4 1=4 2=23
Permute                  permute_616              1 1 970 971 0=3
Permute                  permute_614              1 1 964 972 0=2
MatMul                   matmul_428               2 1 972 971 973
Permute                  permute_615              1 1 968 974 0=3
Permute                  permute_613              1 1 963 975 0=2
MatMul                   matmul_429               2 1 975 974 976
TensorAsStrided          tensor_as_strided_667    1 1 973 977 -23300=3,4,4,20 -23301=3,92,22,1 2=3
BinaryOp                 add_148                  2 1 976 977 978 0=0
Reshape                  view_393                 1 1 978 979 0=20 1=4 2=4
Softmax                  softmax_80               1 1 979 980 0=-1 1=1
Split                    splitncnn_149            1 2 980 981 982
Permute                  permute_612              1 1 962 983 0=2
MatMul                   bmm_408                  2 1 982 983 984
Permute                  permute_617              1 1 984 985 0=2
Reshape                  reshape_300              1 1 985 986 0=96 1=4
InnerProduct             linear_197               1 1 986 987 0=256 1=1 2=24576
BinaryOp                 add_149                  2 1 952 987 988 0=0
Split                    splitncnn_150            1 2 988 989 990
Permute                  permute_470              1 1 990 991 0=1
Convolution1D            conv1d_108               1 1 991 992 0=512 1=1 2=1 3=1 4=0 5=1 6=131072
GLU                      glu_10                   1 1 992 993 0=0
Concat                   cat_27                   2 1 934 993 994 0=1
Split                    splitncnn_151            1 2 994 995 996
ConvolutionDepthWise1D   convdw1d_691             1 1 996 997 0=256 1=31 2=1 3=1 4=0 5=1 6=7936 7=256
Split                    splitncnn_152            1 2 997 998 999
BinaryOp                 sub_150                  1 1 998 1000 0=1 1=1 2=1.000000e+00
Sigmoid                  sigmoid_49               1 1 1000 1001
BinaryOp                 mul_151                  2 1 999 1001 1002 0=2
Convolution1D            conv1d_109               1 1 1002 1003 0=256 1=1 2=1 3=1 4=0 5=1 6=65536
Permute                  permute_471              1 1 1003 1004 0=1
BinaryOp                 add_152                  2 1 989 1004 1005 0=0
Split                    splitncnn_153            1 2 1005 1006 1007
InnerProduct             linear_198               1 1 1007 1008 0=768 1=1 2=196608
Split                    splitncnn_154            1 2 1008 1009 1010
BinaryOp                 sub_153                  1 1 1009 1011 0=1 1=1 2=1.000000e+00
Sigmoid                  sigmoid_50               1 1 1011 1012
BinaryOp                 mul_154                  2 1 1010 1012 1013 0=2
InnerProduct             linear_199               1 1 1013 1014 0=256 1=1 2=196608
BinaryOp                 add_155                  2 1 1006 1014 1015 0=0
Split                    splitncnn_155            1 2 1015 1016 1017
InnerProduct             linear_200               1 1 1017 1018 0=96 1=0 2=24576
Concat                   cat_28                   2 1 932 1018 1019 0=0
Split                    splitncnn_156            1 2 1019 1020 1021
Reshape                  reshape_301              1 1 1020 1022 0=24 1=4 2=20
Permute                  permute_618              1 1 1022 1023 0=2
MatMul                   bmm_409                  2 1 981 1023 1024
Permute                  permute_619              1 1 1024 1025 0=2
Reshape                  reshape_302              1 1 1025 1026 0=96 1=4
InnerProduct             linear_201               1 1 1026 1027 0=256 1=1 2=24576
BinaryOp                 add_156                  2 1 1016 1027 1028 0=0
Split                    splitncnn_157            1 2 1028 1029 1030
Permute                  permute_472              1 1 1030 1031 0=1
Convolution1D            conv1d_110               1 1 1031 1032 0=512 1=1 2=1 3=1 4=0 5=1 6=131072
GLU                      glu_11                   1 1 1032 1033 0=0
Concat                   cat_29                   2 1 936 1033 1034 0=1
Split                    splitncnn_158            1 2 1034 1035 1036
ConvolutionDepthWise1D   convdw1d_692             1 1 1036 1037 0=256 1=31 2=1 3=1 4=0 5=1 6=7936 7=256
Split                    splitncnn_159            1 2 1037 1038 1039
BinaryOp                 sub_157                  1 1 1038 1040 0=1 1=1 2=1.000000e+00
Sigmoid                  sigmoid_51               1 1 1040 1041
BinaryOp                 mul_158                  2 1 1039 1041 1042 0=2
Convolution1D            conv1d_111               1 1 1042 1043 0=256 1=1 2=1 3=1 4=0 5=1 6=65536
Permute                  permute_473              1 1 1043 1044 0=1
BinaryOp                 add_159                  2 1 1029 1044 1045 0=0
Split                    splitncnn_160            1 2 1045 1046 1047
InnerProduct             linear_202               1 1 1047 1048 0=768 1=1 2=196608
Split                    splitncnn_161            1 2 1048 1049 1050
BinaryOp                 sub_160                  1 1 1049 1051 0=1 1=1 2=1.000000e+00
Sigmoid                  sigmoid_52               1 1 1051 1052
BinaryOp                 mul_161                  2 1 1050 1052 1053 0=2
InnerProduct             linear_203               1 1 1053 1054 0=256 1=1 2=196608
BinaryOp                 add_162                  2 1 1046 1054 1055 0=0
Split                    splitncnn_162            1 3 1055 1056 1057 1058
BinaryOp                 mul_163                  2 1 1056 1057 1059 0=2
Reduction                mean_443                 1 1 1059 1060 0=3 1=0 -23303=1,-1 4=1 5=1
BinaryOp                 add_164                  1 1 1060 1061 0=0 1=1 2=5.342896e+00
BinaryOp                 pow_165                  1 1 1061 1062 0=6 1=1 2=-5.000000e-01
BinaryOp                 mul_166                  2 1 1058 1062 1063 0=2
BinaryOp                 sub_167                  2 1 1063 920 1064 0=1
BinaryOp                 mul_168                  2 1 1064 114 1065 0=2
BinaryOp                 add_169                  2 1 921 1065 1066 0=0
MemoryData               encoders.2.out_combiner  0 1 1067 0=1
Split                    splitncnn_163            1 2 1067 1068 1069
BinaryOp                 sub_170                  1 1 1068 1070 0=7 1=1 2=1.000000e+00
SimpleUpsample           simple_upsample_678      1 1 1066 1071 0=4 1=256 2=1024
BinaryOp                 mul_171                  2 1 1071 1070 1072 0=2
BinaryOp                 mul_172                  2 1 759 1069 1073 0=2
BinaryOp                 add_173                  2 1 1073 1072 1074 0=0
Split                    splitncnn_164            1 2 1074 1075 1076
MemoryData               encoders.3.downsample    0 1 1077 0=256 1=1 2=1
Reshape                  reshape_303              1 1 1076 1078 0=256 1=8 2=2
Split                    splitncnn_165            1 2 1078 1079 1080
BinaryOp                 mul_174                  2 1 1079 1077 1081 0=2
Reduction                sum_495                  1 1 1081 1082 0=0 1=0 -23303=1,-1 4=1 5=1
Softmax                  softmax_81               1 1 1082 1083 0=1 1=1
BinaryOp                 mul_175                  2 1 1080 1083 1084 0=2
Reduction                sum_496                  1 1 1084 1085 0=0 1=0 -23303=1,1 4=0 5=1
Crop                     crop_544                 1 1 12 1086 -23310=1,1 -23311=1,0 -23309=1,0
Reshape                  encoders.3.encoder.state_select_list.0_ncnnreshape0 1 1 1086 1087 0=0 1=0
Crop                     crop_545                 1 1 27 1088 -23310=1,1 -23311=1,0 -23309=1,0
Reshape                  pnnx_unique_89_ncnnreshape0 1 1 1088 1089 0=0 1=0
Crop                     crop_546                 1 1 42 1090 -23310=1,1 -23311=1,0 -23309=1,0
Reshape                  pnnx_unique_90_ncnnreshape0 1 1 1090 1091 0=0 1=0
Crop                     crop_547                 1 1 57 1092 -23310=1,1 -23311=1,0 -23309=1,0
Reshape                  pnnx_unique_91_ncnnreshape0 1 1 1092 1093 0=0 1=0
Crop                     crop_548                 1 1 72 1094 -23310=1,1 -23311=1,0 -23309=1,0
Reshape                  pnnx_unique_92_ncnnreshape0 1 1 1094 1095 0=0 1=0
Crop                     crop_549                 1 1 87 1096 -23310=1,1 -23311=1,0 -23309=1,0
Reshape                  pnnx_unique_93_ncnnreshape0 1 1 1096 1097 0=0 1=0
Crop                     crop_550                 1 1 102 1098 -23310=1,1 -23311=1,0 -23309=1,0
Reshape                  pnnx_unique_94_ncnnreshape0 1 1 1098 1099 0=0 1=0
Split                    splitncnn_166            1 4 1085 1100 1101 1102 1103
InnerProduct             linear_204               1 1 1103 1104 0=768 1=1 2=196608
Split                    splitncnn_167            1 2 1104 1105 1106
BinaryOp                 sub_176                  1 1 1105 1107 0=1 1=1 2=1.000000e+00
Sigmoid                  sigmoid_53               1 1 1107 1108
BinaryOp                 mul_177                  2 1 1106 1108 1109 0=2
InnerProduct             linear_205               1 1 1109 1110 0=256 1=1 2=196608
BinaryOp                 add_178                  2 1 1100 1110 1111 0=0
Split                    splitncnn_168            1 2 1111 1112 1113
PoolingModuleNoProj      pooling_modul_no_proj_658 3 3 1113 1087 1089 1114 1115 1116
InnerProduct             linear_206               1 1 1114 1117 0=256 1=0 2=65536
BinaryOp                 add_179                  2 1 1112 1117 1118 0=0
Split                    splitncnn_169            1 2 1118 1119 1120
InnerProduct             linear_207               1 1 1120 1121 0=496 1=1 2=126976
Slice                    tensor_split_6           1 4 1121 1122 1123 1124 1125 -23300=4,192,192,96,-233 1=1
Concat                   cat_30                   2 1 1093 1124 1126 0=0
Split                    splitncnn_170            1 2 1126 1127 1128
Reshape                  reshape_304              1 1 1127 1129 0=24 1=4 2=10
Reshape                  reshape_305              1 1 1122 1130 0=48 1=4 2=2
Reshape                  reshape_306              1 1 1125 1131 0=4 1=4 2=2
Concat                   cat_31                   2 1 1091 1123 1132 0=0
Split                    splitncnn_171            1 2 1132 1133 1134
Reshape                  reshape_307              1 1 1133 1135 0=48 1=4 2=10
InnerProduct             linear_208               1 1 112 1136 0=16 1=0 2=4096
Reshape                  reshape_308              1 1 1136 1137 0=4 1=4 2=11
Permute                  permute_624              1 1 1137 1138 0=3
Permute                  permute_622              1 1 1131 1139 0=2
MatMul                   matmul_430               2 1 1139 1138 1140
Permute                  permute_623              1 1 1135 1141 0=3
Permute                  permute_621              1 1 1130 1142 0=2
MatMul                   matmul_431               2 1 1142 1141 1143
TensorAsStrided          tensor_as_strided_668    1 1 1140 1144 -23300=3,4,2,10 -23301=3,22,10,1 2=1
BinaryOp                 add_180                  2 1 1143 1144 1145 0=0
Reshape                  view_394                 1 1 1145 1146 0=10 1=2 2=4
Softmax                  softmax_82               1 1 1146 1147 0=-1 1=1
Split                    splitncnn_172            1 2 1147 1148 1149
Permute                  permute_620              1 1 1129 1150 0=2
MatMul                   bmm_410                  2 1 1149 1150 1151
Permute                  permute_625              1 1 1151 1152 0=2
Reshape                  reshape_309              1 1 1152 1153 0=96 1=2
InnerProduct             linear_209               1 1 1153 1154 0=256 1=1 2=24576
BinaryOp                 add_181                  2 1 1119 1154 1155 0=0
Split                    splitncnn_173            1 2 1155 1156 1157
Permute                  permute_474              1 1 1157 1158 0=1
Convolution1D            conv1d_112               1 1 1158 1159 0=512 1=1 2=1 3=1 4=0 5=1 6=131072
GLU                      glu_12                   1 1 1159 1160 0=0
Concat                   cat_32                   2 1 1097 1160 1161 0=1
Split                    splitncnn_174            1 2 1161 1162 1163
ConvolutionDepthWise1D   convdw1d_693             1 1 1163 1164 0=256 1=31 2=1 3=1 4=0 5=1 6=7936 7=256
Split                    splitncnn_175            1 2 1164 1165 1166
BinaryOp                 sub_182                  1 1 1165 1167 0=1 1=1 2=1.000000e+00
Sigmoid                  sigmoid_54               1 1 1167 1168
BinaryOp                 mul_183                  2 1 1166 1168 1169 0=2
Convolution1D            conv1d_113               1 1 1169 1170 0=256 1=1 2=1 3=1 4=0 5=1 6=65536
Permute                  permute_475              1 1 1170 1171 0=1
BinaryOp                 add_184                  2 1 1156 1171 1172 0=0
Split                    splitncnn_176            1 2 1172 1173 1174
InnerProduct             linear_210               1 1 1174 1175 0=768 1=1 2=196608
Split                    splitncnn_177            1 2 1175 1176 1177
BinaryOp                 sub_185                  1 1 1176 1178 0=1 1=1 2=1.000000e+00
Sigmoid                  sigmoid_55               1 1 1178 1179
BinaryOp                 mul_186                  2 1 1177 1179 1180 0=2
InnerProduct             linear_211               1 1 1180 1181 0=256 1=1 2=196608
BinaryOp                 add_187                  2 1 1173 1181 1182 0=0
Split                    splitncnn_178            1 2 1182 1183 1184
InnerProduct             linear_212               1 1 1184 1185 0=96 1=0 2=24576
Concat                   cat_33                   2 1 1095 1185 1186 0=0
Split                    splitncnn_179            1 2 1186 1187 1188
Reshape                  reshape_310              1 1 1187 1189 0=24 1=4 2=10
Permute                  permute_626              1 1 1189 1190 0=2
MatMul                   bmm_411                  2 1 1148 1190 1191
Permute                  permute_627              1 1 1191 1192 0=2
Reshape                  reshape_311              1 1 1192 1193 0=96 1=2
InnerProduct             linear_213               1 1 1193 1194 0=256 1=1 2=24576
BinaryOp                 add_188                  2 1 1183 1194 1195 0=0
Split                    splitncnn_180            1 2 1195 1196 1197
Permute                  permute_476              1 1 1197 1198 0=1
Convolution1D            conv1d_114               1 1 1198 1199 0=512 1=1 2=1 3=1 4=0 5=1 6=131072
GLU                      glu_13                   1 1 1199 1200 0=0
Concat                   cat_34                   2 1 1099 1200 1201 0=1
Split                    splitncnn_181            1 2 1201 1202 1203
ConvolutionDepthWise1D   convdw1d_694             1 1 1203 1204 0=256 1=31 2=1 3=1 4=0 5=1 6=7936 7=256
Split                    splitncnn_182            1 2 1204 1205 1206
BinaryOp                 sub_189                  1 1 1205 1207 0=1 1=1 2=1.000000e+00
Sigmoid                  sigmoid_56               1 1 1207 1208
BinaryOp                 mul_190                  2 1 1206 1208 1209 0=2
Convolution1D            conv1d_115               1 1 1209 1210 0=256 1=1 2=1 3=1 4=0 5=1 6=65536
Permute                  permute_477              1 1 1210 1211 0=1
BinaryOp                 add_191                  2 1 1196 1211 1212 0=0
Split                    splitncnn_183            1 2 1212 1213 1214
InnerProduct             linear_214               1 1 1214 1215 0=768 1=1 2=196608
Split                    splitncnn_184            1 2 1215 1216 1217
BinaryOp                 sub_192                  1 1 1216 1218 0=1 1=1 2=1.000000e+00
Sigmoid                  sigmoid_57               1 1 1218 1219
BinaryOp                 mul_193                  2 1 1217 1219 1220 0=2
InnerProduct             linear_215               1 1 1220 1221 0=256 1=1 2=196608
BinaryOp                 add_194                  2 1 1213 1221 1222 0=0
Split                    splitncnn_185            1 3 1222 1223 1224 1225
BinaryOp                 mul_195                  2 1 1223 1224 1226 0=2
Reduction                mean_444                 1 1 1226 1227 0=3 1=0 -23303=1,-1 4=1 5=1
BinaryOp                 add_196                  1 1 1227 1228 0=0 1=1 2=4.219106e+00
BinaryOp                 pow_197                  1 1 1228 1229 0=6 1=1 2=-5.000000e-01
BinaryOp                 mul_198                  2 1 1225 1229 1230 0=2
BinaryOp                 sub_199                  2 1 1230 1101 1231 0=1
BinaryOp                 mul_200                  2 1 1231 111 1232 0=2
BinaryOp                 add_201                  2 1 1102 1232 1233 0=0
Split                    splitncnn_186            1 4 1233 1234 1235 1236 1237
Crop                     crop_551                 1 1 11 1238 -23310=1,2 -23311=1,0 -23309=1,1
Reshape                  encoders.3.encoder.state_select_list.1_ncnnreshape0 1 1 1238 1239 0=0 1=0
Crop                     crop_552                 1 1 26 1240 -23310=1,2 -23311=1,0 -23309=1,1
Reshape                  pnnx_unique_102_ncnnreshape0 1 1 1240 1241 0=0 1=0
Crop                     crop_553                 1 1 41 1242 -23310=1,2 -23311=1,0 -23309=1,1
Reshape                  pnnx_unique_103_ncnnreshape0 1 1 1242 1243 0=0 1=0
Crop                     crop_554                 1 1 56 1244 -23310=1,2 -23311=1,0 -23309=1,1
Reshape                  pnnx_unique_104_ncnnreshape0 1 1 1244 1245 0=0 1=0
Crop                     crop_555                 1 1 71 1246 -23310=1,2 -23311=1,0 -23309=1,1
Reshape                  pnnx_unique_105_ncnnreshape0 1 1 1246 1247 0=0 1=0
Crop                     crop_556                 1 1 86 1248 -23310=1,2 -23311=1,0 -23309=1,1
Reshape                  pnnx_unique_106_ncnnreshape0 1 1 1248 1249 0=0 1=0
Crop                     crop_557                 1 1 101 1250 -23310=1,2 -23311=1,0 -23309=1,1
Reshape                  pnnx_unique_107_ncnnreshape0 1 1 1250 1251 0=0 1=0
InnerProduct             linear_216               1 1 1237 1252 0=768 1=1 2=196608
Split                    splitncnn_187            1 2 1252 1253 1254
BinaryOp                 sub_202                  1 1 1253 1255 0=1 1=1 2=1.000000e+00
Sigmoid                  sigmoid_58               1 1 1255 1256
BinaryOp                 mul_203                  2 1 1254 1256 1257 0=2
InnerProduct             linear_217               1 1 1257 1258 0=256 1=1 2=196608
BinaryOp                 add_204                  2 1 1234 1258 1259 0=0
Split                    splitncnn_188            1 2 1259 1260 1261
PoolingModuleNoProj      pooling_modul_no_proj_659 3 3 1261 1239 1241 1262 1263 1264
InnerProduct             linear_218               1 1 1262 1265 0=256 1=0 2=65536
BinaryOp                 add_205                  2 1 1260 1265 1266 0=0
Split                    splitncnn_189            1 2 1266 1267 1268
InnerProduct             linear_219               1 1 1268 1269 0=496 1=1 2=126976
Slice                    tensor_split_7           1 4 1269 1270 1271 1272 1273 -23300=4,192,192,96,-233 1=1
Concat                   cat_35                   2 1 1245 1272 1274 0=0
Split                    splitncnn_190            1 2 1274 1275 1276
Reshape                  reshape_312              1 1 1275 1277 0=24 1=4 2=10
Reshape                  reshape_313              1 1 1270 1278 0=48 1=4 2=2
Reshape                  reshape_314              1 1 1273 1279 0=4 1=4 2=2
Concat                   cat_36                   2 1 1243 1271 1280 0=0
Split                    splitncnn_191            1 2 1280 1281 1282
Reshape                  reshape_315              1 1 1281 1283 0=48 1=4 2=10
InnerProduct             linear_220               1 1 113 1284 0=16 1=0 2=4096
Reshape                  reshape_316              1 1 1284 1285 0=4 1=4 2=11
Permute                  permute_632              1 1 1285 1286 0=3
Permute                  permute_630              1 1 1279 1287 0=2
MatMul                   matmul_432               2 1 1287 1286 1288
Permute                  permute_631              1 1 1283 1289 0=3
Permute                  permute_629              1 1 1278 1290 0=2
MatMul                   matmul_433               2 1 1290 1289 1291
TensorAsStrided          tensor_as_strided_669    1 1 1288 1292 -23300=3,4,2,10 -23301=3,22,10,1 2=1
BinaryOp                 add_206                  2 1 1291 1292 1293 0=0
Reshape                  view_395                 1 1 1293 1294 0=10 1=2 2=4
Softmax                  softmax_83               1 1 1294 1295 0=-1 1=1
Split                    splitncnn_192            1 2 1295 1296 1297
Permute                  permute_628              1 1 1277 1298 0=2
MatMul                   bmm_412                  2 1 1297 1298 1299
Permute                  permute_633              1 1 1299 1300 0=2
Reshape                  reshape_317              1 1 1300 1301 0=96 1=2
InnerProduct             linear_221               1 1 1301 1302 0=256 1=1 2=24576
BinaryOp                 add_207                  2 1 1267 1302 1303 0=0
Split                    splitncnn_193            1 2 1303 1304 1305
Permute                  permute_478              1 1 1305 1306 0=1
Convolution1D            conv1d_116               1 1 1306 1307 0=512 1=1 2=1 3=1 4=0 5=1 6=131072
GLU                      glu_14                   1 1 1307 1308 0=0
Concat                   cat_37                   2 1 1249 1308 1309 0=1
Split                    splitncnn_194            1 2 1309 1310 1311
ConvolutionDepthWise1D   convdw1d_695             1 1 1311 1312 0=256 1=31 2=1 3=1 4=0 5=1 6=7936 7=256
Split                    splitncnn_195            1 2 1312 1313 1314
BinaryOp                 sub_208                  1 1 1313 1315 0=1 1=1 2=1.000000e+00
Sigmoid                  sigmoid_59               1 1 1315 1316
BinaryOp                 mul_209                  2 1 1314 1316 1317 0=2
Convolution1D            conv1d_117               1 1 1317 1318 0=256 1=1 2=1 3=1 4=0 5=1 6=65536
Permute                  permute_479              1 1 1318 1319 0=1
BinaryOp                 add_210                  2 1 1304 1319 1320 0=0
Split                    splitncnn_196            1 2 1320 1321 1322
InnerProduct             linear_222               1 1 1322 1323 0=768 1=1 2=196608
Split                    splitncnn_197            1 2 1323 1324 1325
BinaryOp                 sub_211                  1 1 1324 1326 0=1 1=1 2=1.000000e+00
Sigmoid                  sigmoid_60               1 1 1326 1327
BinaryOp                 mul_212                  2 1 1325 1327 1328 0=2
InnerProduct             linear_223               1 1 1328 1329 0=256 1=1 2=196608
BinaryOp                 add_213                  2 1 1321 1329 1330 0=0
Split                    splitncnn_198            1 2 1330 1331 1332
InnerProduct             linear_224               1 1 1332 1333 0=96 1=0 2=24576
Concat                   cat_38                   2 1 1247 1333 1334 0=0
Split                    splitncnn_199            1 2 1334 1335 1336
Reshape                  reshape_318              1 1 1335 1337 0=24 1=4 2=10
Permute                  permute_634              1 1 1337 1338 0=2
MatMul                   bmm_413                  2 1 1296 1338 1339
Permute                  permute_635              1 1 1339 1340 0=2
Reshape                  reshape_319              1 1 1340 1341 0=96 1=2
InnerProduct             linear_225               1 1 1341 1342 0=256 1=1 2=24576
BinaryOp                 add_214                  2 1 1331 1342 1343 0=0
Split                    splitncnn_200            1 2 1343 1344 1345
Permute                  permute_480              1 1 1345 1346 0=1
Convolution1D            conv1d_118               1 1 1346 1347 0=512 1=1 2=1 3=1 4=0 5=1 6=131072
GLU                      glu_15                   1 1 1347 1348 0=0
Concat                   cat_39                   2 1 1251 1348 1349 0=1
Split                    splitncnn_201            1 2 1349 1350 1351
ConvolutionDepthWise1D   convdw1d_696             1 1 1351 1352 0=256 1=31 2=1 3=1 4=0 5=1 6=7936 7=256
Split                    splitncnn_202            1 2 1352 1353 1354
BinaryOp                 sub_215                  1 1 1353 1355 0=1 1=1 2=1.000000e+00
Sigmoid                  sigmoid_61               1 1 1355 1356
BinaryOp                 mul_216                  2 1 1354 1356 1357 0=2
Convolution1D            conv1d_119               1 1 1357 1358 0=256 1=1 2=1 3=1 4=0 5=1 6=65536
Permute                  permute_481              1 1 1358 1359 0=1
BinaryOp                 add_217                  2 1 1344 1359 1360 0=0
Split                    splitncnn_203            1 2 1360 1361 1362
InnerProduct             linear_226               1 1 1362 1363 0=768 1=1 2=196608
Split                    splitncnn_204            1 2 1363 1364 1365
BinaryOp                 sub_218                  1 1 1364 1366 0=1 1=1 2=1.000000e+00
Sigmoid                  sigmoid_62               1 1 1366 1367
BinaryOp                 mul_219                  2 1 1365 1367 1368 0=2
InnerProduct             linear_227               1 1 1368 1369 0=256 1=1 2=196608
BinaryOp                 add_220                  2 1 1361 1369 1370 0=0
Split                    splitncnn_205            1 3 1370 1371 1372 1373
BinaryOp                 mul_221                  2 1 1371 1372 1374 0=2
Reduction                mean_445                 1 1 1374 1375 0=3 1=0 -23303=1,-1 4=1 5=1
BinaryOp                 add_222                  1 1 1375 1376 0=0 1=1 2=7.292570e+00
BinaryOp                 pow_223                  1 1 1376 1377 0=6 1=1 2=-5.000000e-01
BinaryOp                 mul_224                  2 1 1373 1377 1378 0=2
BinaryOp                 sub_225                  2 1 1378 1235 1379 0=1
BinaryOp                 mul_226                  2 1 1379 110 1380 0=2
BinaryOp                 add_227                  2 1 1236 1380 1381 0=0
MemoryData               encoders.3.out_combiner  0 1 1382 0=1
Split                    splitncnn_206            1 2 1382 1383 1384
MemoryData               skip_modules.4           0 1 1385 0=1
Split                    splitncnn_207            1 2 1385 1386 1387
BinaryOp                 sub_228                  1 1 1386 1388 0=7 1=1 2=1.000000e+00
BinaryOp                 sub_229                  1 1 1383 1389 0=7 1=1 2=1.000000e+00
SimpleUpsample           simple_upsample_679      1 1 1381 1390 0=8 1=256 2=2048
BinaryOp                 mul_230                  2 1 1390 1389 1391 0=2
BinaryOp                 mul_231                  2 1 1075 1384 1392 0=2
BinaryOp                 add_232                  2 1 1392 1391 1393 0=0
BinaryOp                 mul_233                  2 1 1393 1388 1394 0=2
BinaryOp                 mul_234                  2 1 760 1387 1395 0=2
BinaryOp                 add_235                  2 1 1395 1394 1396 0=0
Split                    splitncnn_208            1 2 1396 1397 1398
MemoryData               encoders.4.downsample    0 1 1399 0=256 1=1 2=1
Reshape                  reshape_320              1 1 1398 1400 0=256 1=2 2=8
Split                    splitncnn_209            1 2 1400 1401 1402
BinaryOp                 mul_236                  2 1 1401 1399 1403 0=2
Reduction                sum_497                  1 1 1403 1404 0=0 1=0 -23303=1,-1 4=1 5=1
Softmax                  softmax_84               1 1 1404 1405 0=1 1=1
BinaryOp                 mul_237                  2 1 1402 1405 1406 0=2
Reduction                sum_498                  1 1 1406 1407 0=0 1=0 -23303=1,1 4=0 5=1
Crop                     crop_558                 1 1 15 1408 -23310=1,1 -23311=1,0 -23309=1,0
Reshape                  encoders.4.encoder.state_select_list.0_ncnnreshape0 1 1 1408 1409 0=0 1=0
Crop                     crop_559                 1 1 30 1410 -23310=1,1 -23311=1,0 -23309=1,0
Reshape                  pnnx_unique_116_ncnnreshape0 1 1 1410 1411 0=0 1=0
Crop                     crop_560                 1 1 45 1412 -23310=1,1 -23311=1,0 -23309=1,0
Reshape                  pnnx_unique_117_ncnnreshape0 1 1 1412 1413 0=0 1=0
Crop                     crop_561                 1 1 60 1414 -23310=1,1 -23311=1,0 -23309=1,0
Reshape                  pnnx_unique_118_ncnnreshape0 1 1 1414 1415 0=0 1=0
Crop                     crop_562                 1 1 75 1416 -23310=1,1 -23311=1,0 -23309=1,0
Reshape                  pnnx_unique_119_ncnnreshape0 1 1 1416 1417 0=0 1=0
Crop                     crop_563                 1 1 90 1418 -23310=1,1 -23311=1,0 -23309=1,0
Reshape                  pnnx_unique_120_ncnnreshape0 1 1 1418 1419 0=0 1=0
Crop                     crop_564                 1 1 105 1420 -23310=1,1 -23311=1,0 -23309=1,0
Reshape                  pnnx_unique_121_ncnnreshape0 1 1 1420 1421 0=0 1=0
Split                    splitncnn_210            1 4 1407 1422 1423 1424 1425
InnerProduct             linear_228               1 1 1425 1426 0=768 1=1 2=196608
Split                    splitncnn_211            1 2 1426 1427 1428
BinaryOp                 sub_238                  1 1 1427 1429 0=1 1=1 2=1.000000e+00
Sigmoid                  sigmoid_63               1 1 1429 1430
BinaryOp                 mul_239                  2 1 1428 1430 1431 0=2
InnerProduct             linear_229               1 1 1431 1432 0=256 1=1 2=196608
BinaryOp                 add_240                  2 1 1422 1432 1433 0=0
Split                    splitncnn_212            1 2 1433 1434 1435
PoolingModuleNoProj      pooling_modul_no_proj_660 3 3 1435 1409 1411 1436 1437 1438
InnerProduct             linear_230               1 1 1436 1439 0=256 1=0 2=65536
BinaryOp                 add_241                  2 1 1434 1439 1440 0=0
Split                    splitncnn_213            1 2 1440 1441 1442
InnerProduct             linear_231               1 1 1442 1443 0=496 1=1 2=126976
Slice                    tensor_split_8           1 4 1443 1444 1445 1446 1447 -23300=4,192,192,96,-233 1=1
Concat                   cat_40                   2 1 1415 1446 1448 0=0
Split                    splitncnn_214            1 2 1448 1449 1450
Reshape                  reshape_321              1 1 1449 1451 0=24 1=4 2=40
Reshape                  reshape_322              1 1 1444 1452 0=48 1=4 2=8
Reshape                  reshape_323              1 1 1447 1453 0=4 1=4 2=8
Concat                   cat_41                   2 1 1413 1445 1454 0=0
Split                    splitncnn_215            1 2 1454 1455 1456
Reshape                  reshape_324              1 1 1455 1457 0=48 1=4 2=40
InnerProduct             linear_232               1 1 108 1458 0=16 1=0 2=4096
Reshape                  reshape_325              1 1 1458 1459 0=4 1=4 2=47
Permute                  permute_640              1 1 1459 1460 0=3
Permute                  permute_638              1 1 1453 1461 0=2
MatMul                   matmul_434               2 1 1461 1460 1462
Permute                  permute_639              1 1 1457 1463 0=3
Permute                  permute_637              1 1 1452 1464 0=2
MatMul                   matmul_435               2 1 1464 1463 1465
TensorAsStrided          tensor_as_strided_670    1 1 1462 1466 -23300=3,4,8,40 -23301=3,376,46,1 2=7
BinaryOp                 add_242                  2 1 1465 1466 1467 0=0
Reshape                  view_396                 1 1 1467 1468 0=40 1=8 2=4
Softmax                  softmax_85               1 1 1468 1469 0=-1 1=1
Split                    splitncnn_216            1 2 1469 1470 1471
Permute                  permute_636              1 1 1451 1472 0=2
MatMul                   bmm_414                  2 1 1471 1472 1473
Permute                  permute_641              1 1 1473 1474 0=2
Reshape                  reshape_326              1 1 1474 1475 0=96 1=8
InnerProduct             linear_233               1 1 1475 1476 0=256 1=1 2=24576
BinaryOp                 add_243                  2 1 1441 1476 1477 0=0
Split                    splitncnn_217            1 2 1477 1478 1479
Permute                  permute_482              1 1 1479 1480 0=1
Convolution1D            conv1d_120               1 1 1480 1481 0=512 1=1 2=1 3=1 4=0 5=1 6=131072
GLU                      glu_16                   1 1 1481 1482 0=0
Concat                   cat_42                   2 1 1419 1482 1483 0=1
Split                    splitncnn_218            1 2 1483 1484 1485
ConvolutionDepthWise1D   convdw1d_697             1 1 1485 1486 0=256 1=31 2=1 3=1 4=0 5=1 6=7936 7=256
Split                    splitncnn_219            1 2 1486 1487 1488
BinaryOp                 sub_244                  1 1 1487 1489 0=1 1=1 2=1.000000e+00
Sigmoid                  sigmoid_64               1 1 1489 1490
BinaryOp                 mul_245                  2 1 1488 1490 1491 0=2
Convolution1D            conv1d_121               1 1 1491 1492 0=256 1=1 2=1 3=1 4=0 5=1 6=65536
Permute                  permute_483              1 1 1492 1493 0=1
BinaryOp                 add_246                  2 1 1478 1493 1494 0=0
Split                    splitncnn_220            1 2 1494 1495 1496
InnerProduct             linear_234               1 1 1496 1497 0=768 1=1 2=196608
Split                    splitncnn_221            1 2 1497 1498 1499
BinaryOp                 sub_247                  1 1 1498 1500 0=1 1=1 2=1.000000e+00
Sigmoid                  sigmoid_65               1 1 1500 1501
BinaryOp                 mul_248                  2 1 1499 1501 1502 0=2
InnerProduct             linear_235               1 1 1502 1503 0=256 1=1 2=196608
BinaryOp                 add_249                  2 1 1495 1503 1504 0=0
Split                    splitncnn_222            1 2 1504 1505 1506
InnerProduct             linear_236               1 1 1506 1507 0=96 1=0 2=24576
Concat                   cat_43                   2 1 1417 1507 1508 0=0
Split                    splitncnn_223            1 2 1508 1509 1510
Reshape                  reshape_327              1 1 1509 1511 0=24 1=4 2=40
Permute                  permute_642              1 1 1511 1512 0=2
MatMul                   bmm_415                  2 1 1470 1512 1513
Permute                  permute_643              1 1 1513 1514 0=2
Reshape                  reshape_328              1 1 1514 1515 0=96 1=8
InnerProduct             linear_237               1 1 1515 1516 0=256 1=1 2=24576
BinaryOp                 add_250                  2 1 1505 1516 1517 0=0
Split                    splitncnn_224            1 2 1517 1518 1519
Permute                  permute_484              1 1 1519 1520 0=1
Convolution1D            conv1d_122               1 1 1520 1521 0=512 1=1 2=1 3=1 4=0 5=1 6=131072
GLU                      glu_17                   1 1 1521 1522 0=0
Concat                   cat_44                   2 1 1421 1522 1523 0=1
Split                    splitncnn_225            1 2 1523 1524 1525
ConvolutionDepthWise1D   convdw1d_698             1 1 1525 1526 0=256 1=31 2=1 3=1 4=0 5=1 6=7936 7=256
Split                    splitncnn_226            1 2 1526 1527 1528
BinaryOp                 sub_251                  1 1 1527 1529 0=1 1=1 2=1.000000e+00
Sigmoid                  sigmoid_66               1 1 1529 1530
BinaryOp                 mul_252                  2 1 1528 1530 1531 0=2
Convolution1D            conv1d_123               1 1 1531 1532 0=256 1=1 2=1 3=1 4=0 5=1 6=65536
Permute                  permute_485              1 1 1532 1533 0=1
BinaryOp                 add_253                  2 1 1518 1533 1534 0=0
Split                    splitncnn_227            1 2 1534 1535 1536
InnerProduct             linear_238               1 1 1536 1537 0=768 1=1 2=196608
Split                    splitncnn_228            1 2 1537 1538 1539
BinaryOp                 sub_254                  1 1 1538 1540 0=1 1=1 2=1.000000e+00
Sigmoid                  sigmoid_67               1 1 1540 1541
BinaryOp                 mul_255                  2 1 1539 1541 1542 0=2
InnerProduct             linear_239               1 1 1542 1543 0=256 1=1 2=196608
BinaryOp                 add_256                  2 1 1535 1543 1544 0=0
Split                    splitncnn_229            1 3 1544 1545 1546 1547
BinaryOp                 mul_257                  2 1 1545 1546 1548 0=2
Reduction                mean_446                 1 1 1548 1549 0=3 1=0 -23303=1,-1 4=1 5=1
BinaryOp                 add_258                  1 1 1549 1550 0=0 1=1 2=6.848550e+00
BinaryOp                 pow_259                  1 1 1550 1551 0=6 1=1 2=-5.000000e-01
BinaryOp                 mul_260                  2 1 1547 1551 1552 0=2
BinaryOp                 sub_261                  2 1 1552 1423 1553 0=1
BinaryOp                 mul_262                  2 1 1553 107 1554 0=2
BinaryOp                 add_263                  2 1 1424 1554 1555 0=0
Split                    splitncnn_230            1 4 1555 1556 1557 1558 1559
Crop                     crop_565                 1 1 14 1560 -23310=1,2 -23311=1,0 -23309=1,1
Reshape                  encoders.4.encoder.state_select_list.1_ncnnreshape0 1 1 1560 1561 0=0 1=0
Crop                     crop_566                 1 1 29 1562 -23310=1,2 -23311=1,0 -23309=1,1
Reshape                  pnnx_unique_129_ncnnreshape0 1 1 1562 1563 0=0 1=0
Crop                     crop_567                 1 1 44 1564 -23310=1,2 -23311=1,0 -23309=1,1
Reshape                  pnnx_unique_130_ncnnreshape0 1 1 1564 1565 0=0 1=0
Crop                     crop_568                 1 1 59 1566 -23310=1,2 -23311=1,0 -23309=1,1
Reshape                  pnnx_unique_131_ncnnreshape0 1 1 1566 1567 0=0 1=0
Crop                     crop_569                 1 1 74 1568 -23310=1,2 -23311=1,0 -23309=1,1
Reshape                  pnnx_unique_132_ncnnreshape0 1 1 1568 1569 0=0 1=0
Crop                     crop_570                 1 1 89 1570 -23310=1,2 -23311=1,0 -23309=1,1
Reshape                  pnnx_unique_133_ncnnreshape0 1 1 1570 1571 0=0 1=0
Crop                     crop_571                 1 1 104 1572 -23310=1,2 -23311=1,0 -23309=1,1
Reshape                  pnnx_unique_134_ncnnreshape0 1 1 1572 1573 0=0 1=0
InnerProduct             linear_240               1 1 1559 1574 0=768 1=1 2=196608
Split                    splitncnn_231            1 2 1574 1575 1576
BinaryOp                 sub_264                  1 1 1575 1577 0=1 1=1 2=1.000000e+00
Sigmoid                  sigmoid_68               1 1 1577 1578
BinaryOp                 mul_265                  2 1 1576 1578 1579 0=2
InnerProduct             linear_241               1 1 1579 1580 0=256 1=1 2=196608
BinaryOp                 add_266                  2 1 1556 1580 1581 0=0
Split                    splitncnn_232            1 2 1581 1582 1583
PoolingModuleNoProj      pooling_modul_no_proj_661 3 3 1583 1561 1563 1584 1585 1586
InnerProduct             linear_242               1 1 1584 1587 0=256 1=0 2=65536
BinaryOp                 add_267                  2 1 1582 1587 1588 0=0
Split                    splitncnn_233            1 2 1588 1589 1590
InnerProduct             linear_243               1 1 1590 1591 0=496 1=1 2=126976
Slice                    tensor_split_9           1 4 1591 1592 1593 1594 1595 -23300=4,192,192,96,-233 1=1
Concat                   cat_45                   2 1 1567 1594 1596 0=0
Split                    splitncnn_234            1 2 1596 1597 1598
Reshape                  reshape_329              1 1 1597 1599 0=24 1=4 2=40
Reshape                  reshape_330              1 1 1592 1600 0=48 1=4 2=8
Reshape                  reshape_331              1 1 1595 1601 0=4 1=4 2=8
Concat                   cat_46                   2 1 1565 1593 1602 0=0
Split                    splitncnn_235            1 2 1602 1603 1604
Reshape                  reshape_332              1 1 1603 1605 0=48 1=4 2=40
InnerProduct             linear_244               1 1 109 1606 0=16 1=0 2=4096
Reshape                  reshape_333              1 1 1606 1607 0=4 1=4 2=47
Permute                  permute_648              1 1 1607 1608 0=3
Permute                  permute_646              1 1 1601 1609 0=2
MatMul                   matmul_436               2 1 1609 1608 1610
Permute                  permute_647              1 1 1605 1611 0=3
Permute                  permute_645              1 1 1600 1612 0=2
MatMul                   matmul_437               2 1 1612 1611 1613
TensorAsStrided          tensor_as_strided_671    1 1 1610 1614 -23300=3,4,8,40 -23301=3,376,46,1 2=7
BinaryOp                 add_268                  2 1 1613 1614 1615 0=0
Reshape                  view_397                 1 1 1615 1616 0=40 1=8 2=4
Softmax                  softmax_86               1 1 1616 1617 0=-1 1=1
Split                    splitncnn_236            1 2 1617 1618 1619
Permute                  permute_644              1 1 1599 1620 0=2
MatMul                   bmm_416                  2 1 1619 1620 1621
Permute                  permute_649              1 1 1621 1622 0=2
Reshape                  reshape_334              1 1 1622 1623 0=96 1=8
InnerProduct             linear_245               1 1 1623 1624 0=256 1=1 2=24576
BinaryOp                 add_269                  2 1 1589 1624 1625 0=0
Split                    splitncnn_237            1 2 1625 1626 1627
Permute                  permute_486              1 1 1627 1628 0=1
Convolution1D            conv1d_124               1 1 1628 1629 0=512 1=1 2=1 3=1 4=0 5=1 6=131072
GLU                      glu_18                   1 1 1629 1630 0=0
Concat                   cat_47                   2 1 1571 1630 1631 0=1
Split                    splitncnn_238            1 2 1631 1632 1633
ConvolutionDepthWise1D   convdw1d_699             1 1 1633 1634 0=256 1=31 2=1 3=1 4=0 5=1 6=7936 7=256
Split                    splitncnn_239            1 2 1634 1635 1636
BinaryOp                 sub_270                  1 1 1635 1637 0=1 1=1 2=1.000000e+00
Sigmoid                  sigmoid_69               1 1 1637 1638
BinaryOp                 mul_271                  2 1 1636 1638 1639 0=2
Convolution1D            conv1d_125               1 1 1639 1640 0=256 1=1 2=1 3=1 4=0 5=1 6=65536
Permute                  permute_487              1 1 1640 1641 0=1
BinaryOp                 add_272                  2 1 1626 1641 1642 0=0
Split                    splitncnn_240            1 2 1642 1643 1644
InnerProduct             linear_246               1 1 1644 1645 0=768 1=1 2=196608
Split                    splitncnn_241            1 2 1645 1646 1647
BinaryOp                 sub_273                  1 1 1646 1648 0=1 1=1 2=1.000000e+00
Sigmoid                  sigmoid_70               1 1 1648 1649
BinaryOp                 mul_274                  2 1 1647 1649 1650 0=2
InnerProduct             linear_247               1 1 1650 1651 0=256 1=1 2=196608
BinaryOp                 add_275                  2 1 1643 1651 1652 0=0
Split                    splitncnn_242            1 2 1652 1653 1654
InnerProduct             linear_248               1 1 1654 1655 0=96 1=0 2=24576
Concat                   cat_48                   2 1 1569 1655 1656 0=0
Split                    splitncnn_243            1 2 1656 1657 1658
Reshape                  reshape_335              1 1 1657 1659 0=24 1=4 2=40
Permute                  permute_650              1 1 1659 1660 0=2
MatMul                   bmm_417                  2 1 1618 1660 1661
Permute                  permute_651              1 1 1661 1662 0=2
Reshape                  reshape_336              1 1 1662 1663 0=96 1=8
InnerProduct             linear_249               1 1 1663 1664 0=256 1=1 2=24576
BinaryOp                 add_276                  2 1 1653 1664 1665 0=0
Split                    splitncnn_244            1 2 1665 1666 1667
Permute                  permute_488              1 1 1667 1668 0=1
Convolution1D            conv1d_126               1 1 1668 1669 0=512 1=1 2=1 3=1 4=0 5=1 6=131072
GLU                      glu_19                   1 1 1669 1670 0=0
Concat                   cat_49                   2 1 1573 1670 1671 0=1
Split                    splitncnn_245            1 2 1671 1672 1673
ConvolutionDepthWise1D   convdw1d_700             1 1 1673 1674 0=256 1=31 2=1 3=1 4=0 5=1 6=7936 7=256
Split                    splitncnn_246            1 2 1674 1675 1676
BinaryOp                 sub_277                  1 1 1675 1677 0=1 1=1 2=1.000000e+00
Sigmoid                  sigmoid_71               1 1 1677 1678
BinaryOp                 mul_278                  2 1 1676 1678 1679 0=2
Convolution1D            conv1d_127               1 1 1679 1680 0=256 1=1 2=1 3=1 4=0 5=1 6=65536
Permute                  permute_489              1 1 1680 1681 0=1
BinaryOp                 add_279                  2 1 1666 1681 1682 0=0
Split                    splitncnn_247            1 2 1682 1683 1684
InnerProduct             linear_250               1 1 1684 1685 0=768 1=1 2=196608
Split                    splitncnn_248            1 2 1685 1686 1687
BinaryOp                 sub_280                  1 1 1686 1688 0=1 1=1 2=1.000000e+00
Sigmoid                  sigmoid_72               1 1 1688 1689
BinaryOp                 mul_281                  2 1 1687 1689 1690 0=2
InnerProduct             linear_251               1 1 1690 1691 0=256 1=1 2=196608
BinaryOp                 add_282                  2 1 1683 1691 1692 0=0
Split                    splitncnn_249            1 3 1692 1693 1694 1695
BinaryOp                 mul_283                  2 1 1693 1694 1696 0=2
Reduction                mean_447                 1 1 1696 1697 0=3 1=0 -23303=1,-1 4=1 5=1
BinaryOp                 add_284                  1 1 1697 1698 0=0 1=1 2=4.731342e+00
BinaryOp                 pow_285                  1 1 1698 1699 0=6 1=1 2=-5.000000e-01
BinaryOp                 mul_286                  2 1 1695 1699 1700 0=2
BinaryOp                 sub_287                  2 1 1700 1557 1701 0=1
BinaryOp                 mul_288                  2 1 1701 106 1702 0=2
BinaryOp                 add_289                  2 1 1558 1702 1703 0=0
MemoryData               encoders.4.out_combiner  0 1 1704 0=1
Split                    splitncnn_250            1 2 1704 1705 1706
BinaryOp                 sub_290                  1 1 1705 1707 0=7 1=1 2=1.000000e+00
SimpleUpsample           simple_upsample_680      1 1 1703 1708 0=2 1=256 2=512
BinaryOp                 mul_291                  2 1 1708 1707 1709 0=2
BinaryOp                 mul_292                  2 1 1397 1706 1710 0=2
BinaryOp                 add_293                  2 1 1710 1709 1711 0=0
MemoryData               downsample_output        0 1 1712 0=256
Reshape                  reshape_337              1 1 1711 1713 0=256 1=2 2=8
Split                    splitncnn_251            1 2 1713 1714 1715
BinaryOp                 mul_294                  2 1 1714 1712 1716 0=2
Reduction                sum_499                  1 1 1716 1717 0=0 1=0 -23303=1,-1 4=1 5=1
Softmax                  softmax_87               1 1 1717 1718 0=1 1=1
BinaryOp                 mul_295                  2 1 1715 1718 1719 0=2
Reduction                sum_500                  1 1 1719 out0 0=0 1=0 -23303=1,1 4=0 5=1
Crop                     slice_339                1 1 1672 1721 -23310=1,-233 -23311=1,1 -23309=1,8
Crop                     slice_338                1 1 1524 1722 -23310=1,-233 -23311=1,1 -23309=1,8
Stack                    stack_0                  2 1 1722 1721 out35 0=0
Crop                     slice_341                1 1 1632 1724 -23310=1,-233 -23311=1,1 -23309=1,8
Crop                     slice_340                1 1 1484 1725 -23310=1,-233 -23311=1,1 -23309=1,8
Stack                    stack_1                  2 1 1725 1724 out30 0=0
Crop                     slice_343                1 1 1658 1727 -23310=1,-233 -23311=1,0 -23309=1,-32
Crop                     slice_342                1 1 1510 1728 -23310=1,-233 -23311=1,0 -23309=1,-32
Stack                    stack_2                  2 1 1728 1727 out25 0=0
Crop                     slice_345                1 1 1598 1730 -23310=1,-233 -23311=1,0 -23309=1,8
Crop                     slice_344                1 1 1450 1731 -23310=1,-233 -23311=1,0 -23309=1,8
Stack                    stack_3                  2 1 1731 1730 out20 0=0
Crop                     slice_347                1 1 1604 1733 -23310=1,-233 -23311=1,0 -23309=1,8
Crop                     slice_346                1 1 1456 1734 -23310=1,-233 -23311=1,0 -23309=1,8
Stack                    stack_4                  2 1 1734 1733 out15 0=0
Stack                    stack_5                  2 1 1438 1586 out10 0=0
Stack                    stack_6                  2 1 1437 1585 out5 0=0
Crop                     slice_349                1 1 1350 1738 -23310=1,-233 -23311=1,1 -23309=1,2
Crop                     slice_348                1 1 1202 1739 -23310=1,-233 -23311=1,1 -23309=1,2
Stack                    stack_7                  2 1 1739 1738 out34 0=0
Crop                     slice_351                1 1 1310 1741 -23310=1,-233 -23311=1,1 -23309=1,2
Crop                     slice_350                1 1 1162 1742 -23310=1,-233 -23311=1,1 -23309=1,2
Stack                    stack_8                  2 1 1742 1741 out29 0=0
Crop                     slice_353                1 1 1336 1744 -23310=1,-233 -23311=1,0 -23309=1,-8
Crop                     slice_352                1 1 1188 1745 -23310=1,-233 -23311=1,0 -23309=1,-8
Stack                    stack_9                  2 1 1745 1744 out24 0=0
Crop                     slice_355                1 1 1276 1747 -23310=1,-233 -23311=1,0 -23309=1,2
Crop                     slice_354                1 1 1128 1748 -23310=1,-233 -23311=1,0 -23309=1,2
Stack                    stack_10                 2 1 1748 1747 out19 0=0
Crop                     slice_357                1 1 1282 1750 -23310=1,-233 -23311=1,0 -23309=1,2
Crop                     slice_356                1 1 1134 1751 -23310=1,-233 -23311=1,0 -23309=1,2
Stack                    stack_11                 2 1 1751 1750 out14 0=0
Stack                    stack_12                 2 1 1116 1264 out9 0=0
Stack                    stack_13                 2 1 1115 1263 out4 0=0
Crop                     slice_359                1 1 1035 1755 -23310=1,-233 -23311=1,1 -23309=1,4
Crop                     slice_358                1 1 887 1756 -23310=1,-233 -23311=1,1 -23309=1,4
Stack                    stack_14                 2 1 1756 1755 out33 0=0
Crop                     slice_361                1 1 995 1758 -23310=1,-233 -23311=1,1 -23309=1,4
Crop                     slice_360                1 1 847 1759 -23310=1,-233 -23311=1,1 -23309=1,4
Stack                    stack_15                 2 1 1759 1758 out28 0=0
Crop                     slice_363                1 1 1021 1761 -23310=1,-233 -23311=1,0 -23309=1,-16
Crop                     slice_362                1 1 873 1762 -23310=1,-233 -23311=1,0 -23309=1,-16
Stack                    stack_16                 2 1 1762 1761 out23 0=0
Crop                     slice_365                1 1 961 1764 -23310=1,-233 -23311=1,0 -23309=1,4
Crop                     slice_364                1 1 813 1765 -23310=1,-233 -23311=1,0 -23309=1,4
Stack                    stack_17                 2 1 1765 1764 out18 0=0
Crop                     slice_367                1 1 967 1767 -23310=1,-233 -23311=1,0 -23309=1,4
Crop                     slice_366                1 1 819 1768 -23310=1,-233 -23311=1,0 -23309=1,4
Stack                    stack_18                 2 1 1768 1767 out13 0=0
Stack                    stack_19                 2 1 801 949 out8 0=0
Stack                    stack_20                 2 1 800 948 out3 0=0
Crop                     slice_369                1 1 719 1772 -23310=1,-233 -23311=1,1 -23309=1,8
Crop                     slice_368                1 1 571 1773 -23310=1,-233 -23311=1,1 -23309=1,8
Stack                    stack_21                 2 1 1773 1772 out32 0=0
Crop                     slice_371                1 1 679 1775 -23310=1,-233 -23311=1,1 -23309=1,8
Crop                     slice_370                1 1 531 1776 -23310=1,-233 -23311=1,1 -23309=1,8
Stack                    stack_22                 2 1 1776 1775 out27 0=0
Crop                     slice_373                1 1 705 1778 -23310=1,-233 -23311=1,0 -23309=1,-32
Crop                     slice_372                1 1 557 1779 -23310=1,-233 -23311=1,0 -23309=1,-32
Stack                    stack_23                 2 1 1779 1778 out22 0=0
Crop                     slice_375                1 1 645 1781 -23310=1,-233 -23311=1,0 -23309=1,8
Crop                     slice_374                1 1 497 1782 -23310=1,-233 -23311=1,0 -23309=1,8
Stack                    stack_24                 2 1 1782 1781 out17 0=0
Crop                     slice_377                1 1 651 1784 -23310=1,-233 -23311=1,0 -23309=1,8
Crop                     slice_376                1 1 503 1785 -23310=1,-233 -23311=1,0 -23309=1,8
Stack                    stack_25                 2 1 1785 1784 out12 0=0
Stack                    stack_26                 2 1 485 633 out7 0=0
Stack                    stack_27                 2 1 484 632 out2 0=0
Crop                     slice_379                1 1 412 1789 -23310=1,-233 -23311=1,1 -23309=1,16
Crop                     slice_378                1 1 264 1790 -23310=1,-233 -23311=1,1 -23309=1,16
Stack                    stack_28                 2 1 1790 1789 out31 0=0
Crop                     slice_381                1 1 372 1792 -23310=1,-233 -23311=1,1 -23309=1,16
Crop                     slice_380                1 1 224 1793 -23310=1,-233 -23311=1,1 -23309=1,16
Stack                    stack_29                 2 1 1793 1792 out26 0=0
Crop                     slice_383                1 1 398 1795 -23310=1,-233 -23311=1,0 -23309=1,-64
Crop                     slice_382                1 1 250 1796 -23310=1,-233 -23311=1,0 -23309=1,-64
Stack                    stack_30                 2 1 1796 1795 out21 0=0
Crop                     slice_385                1 1 338 1798 -23310=1,-233 -23311=1,0 -23309=1,16
Crop                     slice_384                1 1 190 1799 -23310=1,-233 -23311=1,0 -23309=1,16
Stack                    stack_31                 2 1 1799 1798 out16 0=0
Crop                     slice_387                1 1 344 1801 -23310=1,-233 -23311=1,0 -23309=1,16
Crop                     slice_386                1 1 196 1802 -23310=1,-233 -23311=1,0 -23309=1,16
Stack                    stack_32                 2 1 1802 1801 out11 0=0
Stack                    stack_33                 2 1 178 326 out6 0=0
Stack                    stack_34                 2 1 177 325 out1 0=0
